CNN_PyTorch/mnist_cnn.pth (torch, 903256 bytes, 8 tensors)

conv1.weight f4 [32, 1, 3, 3]
-0.021041341 0.2120419 -0.22667247 -0.07950992 0.13879804 0.10549961 -0.044712793 0.015725883
0.23485072 -0.34305072 -0.55211025 -0.014495895 -0.15184867 0.20058829 -0.22806896 0.33260116
0.4034915 -0.12702352 -0.33931476 0.12977034 -0.22271928 0.056723185 0.24352689 -0.01547814
-0.1961154 0.14052485 -0.096884936 0.15933406 0.115321726 0.18018545 -0.111057885 0.11833443
0.41788268 -0.24566022 -0.34601048 -0.03402352 0.031327564 -0.24175164 0.03391293 0.1558749
0.14441912 0.058024365 -0.36910865 0.06520946 0.20043476 -0.07153759 0.07855967 0.139777
0.13349524 0.1448782 0.029721593 0.20281146 0.029840905 -0.38828936 0.018279904 0.21877222
0.17693184 0.0322059 0.26811147 -0.15726337 0.09220424 0.1965732 -0.42816103 0.108726
0.16787319 -0.12536225 -0.11840042 0.36110806 0.07449141 -0.30616274 -0.3567572 0.07097105
0.12517636 0.48968697 0.31660742 0.2666314 -0.073624805 -0.33632442 -0.29956222 -0.46869975
-0.26227695 -0.24845743 -0.380712 -0.08135479 -0.5304393 0.15608086 0.31730846 -0.12101574
0.35101423 0.1900334 -0.24732994 -0.33659393 -0.1435955 -0.238711 -0.13149036 -0.27747676
0.03941237 -0.19775605 -0.26290473 0.040101953 -0.11041175 0.12693116 -0.20776717 -0.059409004
0.21954018 -0.41263914 0.25189865 0.05412776 0.23303634 -0.017799651 0.56202376 -0.47136134
-0.4719488 0.4049637 -0.05790832 -0.41087377 0.12051677 -0.086596265 -0.18456817 -0.39535922
-0.023563052 -0.26161966 -0.06234516 0.4026463 0.12338796 0.41805086 0.04916598 0.2528395
0.045517504 -0.18418948 0.06828111 -0.17059013 0.23087853 -0.33965343 -0.088472016 -0.4855267
0.13019598 0.24073854 0.17788994 0.4235385 -0.13624015 0.24411738 -0.20818658 -0.45807138
0.20084432 0.13579622 -0.3077307 -0.10390963 0.3072347 -0.20876656 0.068700254 -0.062212124
0.33288732 0.07327896 0.28129095 0.3831813 -0.22613713 -0.15091984 0.011677368 0.23880458
-0.31946835 -0.29624867 0.028096577 0.19228679 -0.07694596 -0.3999853 0.33033112 -0.121897474
0.21191306 -0.13364822 -0.009849923 -0.131518 -0.033831853 -0.055315334 0.19513102 0.2354366
0.1443679 -0.1906746 -0.22604723 -0.07720744 -0.17933793 -0.46521938 -0.52036774 0.11706
-0.026297173 0.2568248 0.07710086 0.379785 0.34157827 0.14863698 0.09693583 0.055050332
-0.03090586 0.22463755 0.21213894 -0.06794155 0.13286404 0.04393856 -0.10411226 -0.4473356
-0.27342585 0.39817345 -0.020167481 -0.36027533 0.4266932 0.042507585 -0.0059592477 -0.120825484
0.16907431 -0.39525026 0.39227265 -0.35170853 -0.26020324 0.43526474 0.09955897 -0.05892253
0.004375111 -0.074016415 0.13504246 0.058924846 -0.34077865 -0.13884346 -0.037661985 0.37539607
-0.19208407 0.19625604 0.13654426 -0.31049865 0.3621535 -0.05396146 -0.45267263 0.008087333
-0.10943416 0.094026744 0.28998676 0.10515071 -0.3588134 0.11094404 -0.4315797 -0.13952422
0.1232105 -0.3980164 0.42792657 0.111887276 0.09461631 0.16924846 0.15382983 -0.001974949
-0.07881739 0.05859569 -0.09358962 0.077399 -0.5542665 -0.21730207 -0.15779133 0.2589583
00000000: e45e acbc 8321 593e d41c 68be 19d6 a2bd
00000010: 1321 0e3e 2e10 d83d c324 37bd 91d3 803c
00000020: b57c 703e 58a4 afbe 1957 0dbf 3180 6dbc
00000030: 387e 1bbe 0467 4d3e e98a 69be b34a aa3e
00000040: 7096 ce3e 7412 02be aaba adbe 84e2 043e
00000050: 8610 64be 9256 683d 1d5f 793e 0698 7dbc
00000060: 7ad2 48be bfe5 0f3e 9c6b c6bd 7828 233e
00000070: cc2d ec3d 8982 383e 5172 e3bd 5259 f23d
00000080: b8f4 d53e 5a8e 7bbe 4928 b1be 3f5c 0bbd
00000090: 5551 003d be8d 77be 49e8 0a3d ab9d 1f3e
000000a0: 9be2 133e f5aa 6d3d cffb bcbe 8a8c 853d
000000b0: c53e 4d3e 4d82 92bd e4e3 a03d b421 0f3e
000000c0: fab2 083e f35a 143e b37a f33c cfad 4f3e
000000d0: ea74 f43c ddcd c6be bdbf 953c d305 603e
000000e0: 9f2d 353e 55ea 033d e845 893e a609 21be
000000f0: 94d5 bc3d 7c4a 493e ec37 dbbe bdab de3d
00000100: f3e6 2b3e f65e 00be eb7b f2bd 28e3 b83e
00000110: f48e 983d 5dc1 9cbe e1a8 b6be 4559 913d
00000120: 3b2e 003e 40b8 fa3e 5e1a a23e e983 883e
00000130: 9ac8 96bd b732 acbe 3860 99be 6af9 efbe
00000140: 2a49 86be a06b 7ebe afec c2be 579d a6bd
00000150: dfca 07bf a9d3 1f3e 4176 a23e 1ad7 f7bd
00000160: 23b8 b33e 1e98 423e 0f44 7dbe 0a56 acbe
00000170: b30a 13be a870 74be 69a5 06be 6f11 8ebe
00000180: de6e 213d 9080 4abe 739b 86be f241 243d
00000190: 8e1f e2bd 3efa 013e ebc0 54be db56 73bd
000001a0: 24cf 603e 7045 d3be dcf8 803e 12b5 5d3d
000001b0: 14a1 6e3e 93d0 91bc cae0 0f3f 4656 f1be
000001c0: 46a3 f1be 6757 cf3e 4631 6dbd 0c5e d2be
000001d0: 7fd1 f63d 6259 b1bd 70ff 3cbe 866c cabe
000001e0: 4d07 c1bc 03f3 85be a35d 7fbd a827 ce3e
000001f0: d4b2 fc3d c30a d63e 4462 493d 2e74 813e
00000200: 9070 3a3d 2b9c 3cbe f7d6 8b3d 2eaf 2ebe
00000210: 6c6b 6c3e 0ee7 adbe d130 b5bd f596 f8be
00000220: 1852 053e 2a84 763e c828 363e 0ada d83e
00000230: 8a82 0bbe e8f9 793e dd2e 55be 5588 eabe
00000240: 22aa 4d3e 2a0e 0b3e e18e 9dbe 92ce d4bd
00000250: de4d 9d3e e7c6 55be b8b2 8c3d 24d2 7ebd
00000260: 3570 aa3e 4813 963d 5e05 903e 5730 c43e
00000270: 7e90 67be bb8a 1abe 6e52 3f3c 3089 743e
00000280: 5b91 a3be e8ad 97be cb2a e63c d4e6 443e
00000290: d895 9dbd e0ca ccbe 2921 a93e 62a5 f9bd
000002a0: bdff 583e 14db 08be 9261 21bc a8ac 06be
000002b0: 4593 0abd 5592 62bd 6dd0 473e 4b16 713e
000002c0: 2ed5 133e 3440 43be ed78 67be ef1e 9ebd
000002d0: 5da4 37be 3c31 eebe d236 05bf 27bd ef3d
000002e0: 2b6d d7bc 8a7e 833e 0ee7 9d3d 2e73 c23e
000002f0: 59e3 ae3e 4b34 183e 4b86 c63d 757c 613d
00000300: 492e fdbc 6307 663e f33a 593e f024 8bbd
00000310: 830d 083e ebf8 333d cf38 d5bd 2c09 e5be
00000320: 79fe 8bbe 64dd cb3e 4636 a5bc 0276 b8be
00000330: 8877 da3e 6f1c 2e3d cb45 c3bb 5a73 f7bd
00000340: d121 2d3e 3e5e cabe f6d7 c83e 2413 b4be
00000350: 5c39 85be 05db de3e 93e5 cb3d c058 71bd
00000360: 175d 8f3b eb95 97bd 9248 0a3e 2e5b 713d
00000370: 8a7a aebe fb2c 0ebe 7443 1abd ea33 c03e
00000380: b0b1 44be 58f7 483e 42d2 0b3e aef9 9ebe
00000390: 2f6c b93e b106 5dbd b5c4 e7be bc80 043c
000003a0: 041f e0bd 1891 c03d 2579 943e 4159 d73d
000003b0: 64b6 b7be a136 e33d 04f8 dcbe 70df 0ebe
000003c0: c955 fc3d cec8 cbbe 3119 db3e 2825 e53d
000003d0: 32c6 c13d 784f 2d3e 9185 1d3e 256e 01bb
000003e0: 036b a1bd 0902 703d eaab bfbd 5e83 9e3d
000003f0: 69e4 0dbf 6f84 5ebe 0d94 21be 2f96 843e

conv1.bias f4 [32]
-0.25504172 0.07011261 -0.11605595 -0.28916383 -0.3118611 -0.11992703 -0.3588899 -0.056587525
0.19557635 -0.13559875 0.18787597 -0.06636731 -0.22353198 -0.052421197 -0.21372177 -0.24519175
-0.49237856 -0.27382267 -0.28453732 -0.09486682 -0.24199142 -0.319162 0.02623607 -0.0547255
-0.15647317 -0.124042444 0.0148553 -0.55383205 -0.22041987 0.01611983 -0.24264733 -0.12800883
00000000: d494 82be 3397 8f3d beae edbd 480d 94be
00000010: 42ac 9fbe 4d9c f5bd 6bc0 b7be 52c8 67bd
00000020: 2b45 483e 66da 0abe 8f62 403e 96eb 87bd
00000030: 91e5 64be 9cb7 56bd e1d9 5abe 8c13 7bbe
00000040: 0b19 fcbe 7c32 8cbe e0ae 91be 8949 c2bd
00000050: 99cc 77be 3469 a3be 07ed d63c d927 60bd
00000060: 813a 20be f709 febd a563 733c f0c7 0dbf
00000070: bfb5 61be bc0d 843c 8b78 78be bf14 03be

conv2.weight f4 [64, 32, 3, 3]
-0.027931394 -0.10146539 0.06698398 -0.041646004 0.014696942 0.055880636 -0.16494043 -0.015320447
-0.0021630807 -0.014286251 -0.092844516 0.034610048 0.009785808 -0.12682955 -0.0043956717 -0.0910279
-0.036514692 -0.0738402 0.06587073 -0.14764875 0.093020886 0.05721195 -0.115247115 0.11908587
-0.05226386 -0.08913473 0.07846161 -0.18437995 -0.044617 0.031477727 0.011231786 -0.021391096
0.019400572 -0.020137075 0.1650671 0.029842513 -0.06917809 -0.06857383 0.081538014 -0.084761634
-0.054828014 0.053164694 -0.163936 0.096218936 0.11138048 0.061490223 -0.17092024 0.04225686
0.068093054 -0.115347 0.04773183 0.0012434709 -0.12324291 0.07973013 0.03079551 -0.17572628
0.080968864 0.07775253 -0.20872661 0.038207166 -0.0070692897 -0.17735688 -0.009708399 -0.10795799
-0.0850073 0.0065661753 0.008035692 -0.07409837 -0.040205628 -0.043810632 0.007236345 -0.0009268343
-0.04538385 -0.021460164 -0.23405403 0.008353134 -0.1901422 -0.15046954 0.13625684 -0.15386206
-0.0945728 -0.1976414 0.029420793 0.11978703 -0.12201305 -0.016830234 -0.0038799525 -0.09340796
0.014553933 0.09804068 0.040225025 0.073879786 -0.051479276 0.0045455275 -0.0108856475 -0.1111474
0.018789379 0.044880815 -0.22286916 -0.11501478 0.01063406 0.06867976 -0.07855628 0.07678001
0.0377901 -0.022961397 0.084419884 0.050868705 -0.17726763 0.06647869 0.09004424 -0.13573752
0.11905882 0.05711643 -0.021297539 0.18343158 0.07713585 -0.07658491 -0.13672689 0.0720077
-0.0017958959 0.008012702 -0.0013659471 -0.060340263 -0.027224109 -0.12148188 -0.041724842 -0.041043796
-0.08928651 0.062987275 -0.14974675 0.011061989 0.11669437 -0.04741957 0.028755058 -0.1004721
-0.30825192 -0.04129737 0.1636092 -0.38284022 -0.037198015 0.21936679 -0.29368287 -0.02325495
0.0025624568 -0.15644349 -0.033431377 0.050927788 -0.22883382 -0.014206786 0.018843377 -0.04148053
-0.067028336 -0.06704367 -0.12962538 -0.20695475 0.015049678 -0.15081483 -0.045711882 0.09474229
-0.083723255 -0.1657823 -0.0111391945 -0.057796314 0.0081021385 0.056367993 -0.07992554 0.09002182
0.0015342035 -0.06513809 0.024289677 -0.063789204 -0.07468522 0.06783782 -0.035816647 -0.03623836
-0.004349437 -0.096899286 -0.0074234656 0.049228165 -0.18679962 -0.1884074 0.12374418 -0.07988502
-0.07163497 -0.012947829 0.001517555 -0.011056523 -0.13628837 -0.039898742 -0.04614148 0.033242635
0.019122424 -0.13321531 0.061289348 -0.08715898 -0.016349617 0.07365349 0.08986597 -0.054202408
0.071693204 0.09786254 0.027473846 -0.019400513 0.012367711 0.095535055 -0.048031773 0.04198531
0.008619037 0.072014295 0.033723645 -0.021041503 -0.0020462999 0.13006225 -0.07027016 0.017965643
-0.034382243 -0.21157873 0.012013782 -0.06281003 -0.091922626 -0.049611133 -0.086501785 -0.025358804
-0.017975608 0.015385124 0.03546171 -0.011918694 0.053096857 -0.067195676 0.0019258886 0.1867595
-0.041967858 -0.008867964 0.016544905 -0.06837777 -0.0329994 -0.01624909 -0.02076199 0.044933695
-0.00257906 -0.0006452619 -0.06014921 -0.05325744 -0.0026613246 -0.04920515 -0.0378809 -0.074227735
0.037018266 -0.05503103 -0.104721755 0.07731197 -0.10184046 -0.33590665 -0.012961318 0.010385422
00000000: 61d0 e4bc 16cd cfbd e62e 893d 0095 2abd
00000010: 71cb 703c 18e3 643d 25e6 28be 9d02 7bbc
00000020: 79c2 0dbb e110 6abc 4425 bebd 44c3 0d3d
00000030: a754 203c 9bdf 01be 9109 90bb d66c babd
00000040: 6e90 15bd 8839 97bd 3ce7 863d 3c31 17be
00000050: bc81 be3d 1457 6a3d ae06 ecbd 4be3 f33d
00000060: a112 56bd 458c b6bd 7bb0 a03d 19ce 3cbe
00000070: 51c0 36bd caee 003d 8605 383c 613c afbc
00000080: f3ed 9e3c 82f6 a4bc 5a07 293e 4978 f43c
00000090: 3ead 8dbd 7070 8cbd 67fd a63d 8297 adbd
000000a0: 5793 60bd 39c3 593d d7de 27be 6f0e c53d
000000b0: 731b e43d 2cdd 7b3d b705 2fbe 8715 2d3d
000000c0: 5f74 8b3d 0c3b ecbd 7482 433d f6fb a23a
000000d0: c766 fcbd 8d49 a33d de46 fc3c 97f1 33be
000000e0: 01d3 a53d b83c 9f3d 6ebc 55be 1e7f 1c3d
000000f0: 80a5 e7bb 0b9d 35be fa0f 1fbc 1419 ddbd
00000100: 4f18 aebd 1229 d73b 23a8 033c e3c0 97bd
00000110: a8ae 24bd c772 33bd dd1e ed3b ccf6 72ba
00000120: 6ae4 39bd 3acd afbc dcab 6fbe 95db 083c
00000130: a3b4 42be b014 1abe ea86 0b3e 048e 1dbe
00000140: 62af c1bd 8262 4abe e003 f13c e752 f53d
00000150: fae1 f9bd 8fdf 89bc cd46 7ebb ac4c bfbd
00000160: 9f73 6e3c 8dc9 c83d ffc2 243d 494e 973d
00000170: efdb 52bd a6f2 943b b759 32bc 40a1 e3bd
00000180: 2fec 993c f2d4 373d d037 64be de8c ebbd
00000190: 7b3a 2e3c f9a7 8c3d 1de2 a0bd d63e 9d3d
000001a0: cbc9 1a3d 8a19 bcbc 55e4 ac3d b45b 503d
000001b0: a585 35be fb25 883d 1d69 b83d c7fe 0abe
000001c0: 1cd5 f33d ebf2 693d 2d78 aebc 7dd5 3b3e
000001d0: 67f9 9d3d 8dd8 9cbd 2202 0cbe c678 933d
000001e0: 4464 ebba b547 033c 9409 b3ba 5a27 77bd
000001f0: 1805 dfbc 7ecb f8bd abe7 2abd 8a1d 28bd
00000200: d9db b6bd 79ff 803d 3657 19be 583d 353c
00000210: 75fd ee3d 063b 42bd ba8f eb3c 51c4 cdbd
00000220: 32d3 9dbe 6e27 29bd 2c89 273e a203 c4be
00000230: f25c 18bd b0a1 603e 9a5d 96be 2a81 bebc
00000240: e4ee 273b b932 20be 57ef 08bd a899 503d
00000250: 6a53 6abe 94c3 68bc 6d5d 9a3c 7de7 29bd
00000260: 2746 89bd 314e 89bd 84bc 04be f2eb 53be
00000270: ed92 763c 346f 1abe 623c 3bbd 3f08 c23d
00000280: 1977 abbd d6c2 29be 2b81 36bc d4bb 6cbd
00000290: d5be 043c 20e2 663d 00b0 a3bd 5c5d b83d
000002a0: 5417 c93a 1e67 85bd 25fb c63c eaa3 82bd
000002b0: 91f4 98bd 8eee 8a3d 7ab4 12bd ad6e 14bd
000002c0: b985 8ebb 2273 c6bd 8b40 f3bb 79a3 493d
000002d0: 6648 3fbe dfed 40be 976d fd3d c29a a3bd
000002e0: 5bb5 92bd 2223 54bc b2e8 c63a 6b26 35bc
000002f0: 2e8f 0bbe dd6c 23bd d9fe 3cbd 6e29 083d
00000300: a1a6 9c3c 9869 08be 8a0a 7b3d 6880 b2bd
00000310: a2ef 85bc a4d7 963d a60b b83d 5803 5ebd
00000320: e3d3 923d 286c c83d d510 e13c d3ed 9ebc
00000330: f1a1 4a3c e2a7 c33d f7bc 44bd caf8 2b3d
00000340: dd36 0d3c 3b7c 933d ce21 0a3d 3b5f acbc
00000350: 371b 06bb 0a2f 053e cde9 8fbd af2c 933c
00000360: 65d4 0cbd 18a8 58be 74d5 443c 8ca2 80bd
00000370: ee41 bcbd 0b35 4bbd d927 b1bd 44bd cfbc
00000380: 9541 93bc e311 7c3c 4c40 113d a046 43bc
00000390: 177c 593d e39d 89bd 196e fc3a e23d 3f3e
000003a0: 7de6 2bbd f04a 11bc 2e89 873c a509 8cbd
000003b0: 612a 07bd d01c 85bc 0d15 aabc 650c 383d
000003c0: 7205 29bb cb26 29ba 055f 76bd 7924 5abd
000003d0: 9e69 2ebb 578b 49bd 0129 1bbd b604 98bd
000003e0: 77a0 173d 3868 61bd 5c78 d6bd bd55 9e3d
000003f0: bb91 d0bd f5fb abbe b55b 54bc 9e27 2a3c

conv2.bias f4 [64]
-0.014411648 -0.057000283 -0.10962341 -0.11242935 -0.059410866 -0.04261154 0.0100446185 -0.021927372
-0.06711144 -0.07843135 -0.087491736 -0.09078278 -0.049177088 -0.103041366 0.09161356 0.043167997
-0.025162246 -0.00622927 -0.1596347 -0.05403669 0.021567065 -0.064368784 -0.103640884 -0.1094936
-0.061646547 -0.108771205 -0.015152413 -0.0060727666 -0.10292256 -0.08869122 -0.027664905 -0.06463098
0.002740483 -0.037037488 -0.084418826 -0.07511523 0.006407234 -0.053889446 -0.010182191 -0.019915484
-0.20000459 0.010501554 -0.023374792 -0.08354711 -0.01891712 -0.010505491 -0.085274614 -0.085860185
-0.12533978 0.022585697 0.00038663822 -0.01783344 0.0318149 -0.116089314 -0.058763098 0.040017057
-0.04261826 0.024664517 -0.06283718 -0.06364539 -0.10681736 -0.07507609 -0.055238303 -0.0279999
00000000: d51e 6cbc 2179 69bd 3d82 e0bd 5c41 e6bd
00000010: cf58 73bd 7089 2ebd 2f92 243c 08a1 b3bc
00000020: b971 89bd 9ea0 a0bd de2e b3bd 52ec b9bd
00000030: ea6d 49bd 5a07 d3bd e49f bb3d edd0 303d
00000040: 0e21 cebc e71e ccbb 4777 23be 9455 5dbd
00000050: 6aad b03c c8d3 83bd ac41 d4bd 2e3e e0bd
00000060: 1781 7cbd 70c3 debd d441 78bc 0ffe c6bb
00000070: 10c9 d2bd bea3 b5bd 83a1 e2bc 3f5d 84bd
00000080: ad99 333b 9fb4 17bd c7e3 acbd 04d6 99bd
00000090: c6f3 d13b 2ebb 5cbd 34d3 26bc cc25 a3bc
000000a0: 01ce 4cbe b60e 2c3c 7e7c bfbc bf1a abbd
000000b0: 13f8 9abc 391f 2cbc 75a4 aebd 77d7 afbd
000000c0: 1259 00be a405 b93c b4b5 ca39 6f17 92bc
000000d0: 5750 023d 3cc0 edbd 93b1 70bd ede8 233d
000000e0: 7c90 2ebd 3e0d ca3c c8b0 80bd 8458 82bd
000000f0: 0fc3 dabd 7ec1 99bd 8f41 62bd 0c60 e5bc

fc1.weight f4 [128, 1600]
-0.037129562 0.02921973 -0.09516598 0.086472355 0.01535613 -0.005695382 0.061379265 -0.047559008
0.094374016 0.019205034 -0.02491126 -0.037687678 -0.024308687 0.16673164 0.23540005 0.0024244965
-0.042451337 -0.043686043 0.035120778 -0.11946373 -0.043553654 0.04718386 0.11014642 -0.13467266
-0.096550494 0.025819134 0.028131407 -0.044182982 -0.04983867 -0.00912314 -0.010187256 -0.054074764
0.027595703 0.11449893 -0.033448223 0.06130335 0.00074714725 0.05485879 -0.013555118 0.05919238
0.013888332 0.14416112 0.024113225 -0.04827179 0.028579663 -0.0049241376 -0.06273025 -0.056807365
-0.19704469 -0.118333675 -0.14471549 -0.017623834 -0.069267705 -0.0845393 0.018197585 0.02273636
0.07648051 -0.0039583095 0.0635273 -0.00424206 0.07804886 -0.013335914 -0.12962416 0.04543581
0.08674133 0.042634167 -0.07975825 -0.094143584 -0.07601241 0.04391059 -0.13365224 0.0034720963
0.01028676 0.026890354 0.005860819 0.06533562 0.06875767 0.0025733018 -0.05056114 -0.008056832
-0.005734534 0.0032901396 0.04541556 -0.002200361 0.0720791 0.010034222 -0.06353494 -0.039421678
0.10256283 -0.0031358728 0.010542127 0.060624417 -0.04078059 -0.023566281 -0.004975223 -0.08296701
-0.09159444 -0.08061794 -0.012710298 -0.05012516 -0.027156075 -0.04151609 0.018353183 -0.013166922
-0.01688984 -0.023544092 0.015571948 -0.03545509 0.09229539 0.0029375714 0.07041867 -0.0007595855
0.04434924 0.021538997 0.046466995 -0.06728507 -0.02838847 -0.10773161 -0.012135038 0.019893076
-0.011087105 -0.08750444 -0.11139839 0.00038374285 0.042473055 0.04589178 -0.06580895 0.036098927
-0.051396094 -0.017037217 0.11767108 0.0995422 0.09659554 -0.027560126 0.084188454 0.040946253
0.0154243605 0.11734513 -0.055461977 -0.14201061 -0.14417976 0.05369696 -0.0072374456 -0.16222675
0.0261876 -0.037294332 -0.023517901 0.023904908 -0.12399976 -0.124187246 -0.012379511 0.024616476
-0.0043070214 0.058683775 0.18916063 -0.05658626 -0.004610937 0.05188533 -0.027353218 -0.08258511
-0.12148177 0.025141228 0.05688604 -0.2551744 -0.05820736 0.0069771954 0.019886289 -0.05151932
-0.013357263 -0.115427226 0.0081659295 -0.11000563 -0.17627323 0.02310372 0.026611734 -0.03509609
0.039767407 -0.036756974 0.046590194 0.056731008 0.04377227 0.029950203 -0.054551106 0.020259935
-0.028605528 -0.039646175 -0.043269467 0.04504584 0.03268469 0.028845102 -0.06738484 0.097791485
0.15280135 0.06807621 0.0364846 0.054451395 0.15998691 0.21809341 0.03162271 -0.10044947
0.041381527 0.013862342 0.13216123 0.0141541585 0.10358603 0.006026697 0.0032105418 0.05721408
0.051492326 -0.06731786 -0.07739098 -0.03430398 0.005766044 0.07194308 0.065725245 0.006556204
0.032687664 -0.04430593 -0.08235932 -0.045767594 -0.067616716 -0.11137334 -0.051659744 -0.014896213
-0.008729036 -0.08402763 0.008787407 -0.14534138 -0.00270734 0.029482389 -0.06537379 -0.08271144
0.020098027 0.023120584 0.082761884 0.06033801 0.11987242 0.050192904 0.114701755 0.10342423
-0.0015298481 -0.030492295 0.035392288 0.014705504 0.0038249225 0.045704145 0.079671964 0.056457072
0.019970827 -0.048439767 0.029352501 -0.06233076 -0.025585089 -0.09195606 0.015439963 -0.005983361
00000000: 2b15 18bd 375e ef3c 62e6 c2bd 6b18 b13d
00000010: 4798 7b3c 54a0 babb d368 7b3d 3ccd 42bd
00000020: 2a47 c13d e053 9d3c b312 ccbc 655e 1abd
00000030: 0323 c7bc b3bb 2a3e b60c 713e 4de4 1e3b
00000040: 74e1 2dbd 23f0 32bd ceda 0f3d 66a9 f4bd
00000050: 5165 32bd dd43 413d 7294 e13d a1e7 09be
00000060: 44bc c5bd a682 d33c d673 e63c 37f9 34bd
00000070: a223 4cbd 3979 15bc 73e8 26bc 807d 5dbd
00000080: 6210 e23c 6a7e ea3d 0101 09bd 3919 7b3d
00000090: 34dc 433a 9cb3 603d 4916 5ebc b673 723d
000000a0: e38b 633c f99e 133e 1989 c53c a4b8 45bd
000000b0: e61f ea3c a95a a1bb b878 80bd d7ae 68bd
000000c0: 15c6 49be ed58 f2bd 4c30 14be dc5f 90bc
000000d0: 3adc 8dbd f122 adbd 1a13 953c 9a41 ba3c
000000e0: d0a1 9c3d b5b4 81bb 9a1a 823d fa00 8bbb
000000f0: 15d8 9f3d e17e 5abc 32bc 04be e61a 3a3d
00000100: 70a5 b13d 2aa1 2e3d 4b58 a3bd 5ace c0bd
00000110: 65ac 9bbd 97db 333d 22dc 08be 1c8c 633b
00000120: cc89 283c 2949 dc3c 1d0c c03b aece 853d
00000130: d2d0 8c3d d7a4 283b 3319 4fbd cd00 04bc
00000140: c2e8 bbbb 629f 573b ab05 3a3d ef33 10bb
00000150: 359e 933d 9466 243c 9b1e 82bd a078 21bd
00000160: 760c d23d 3783 4dbb e3b8 2c3c 4f51 783d
00000170: 8c09 27bd 130e c1bc 3207 a3bb 9cea a9bd
00000180: de95 bbbd 051b a5bd db3e 50bc 0a50 4dbd
00000190: 6b76 debc c70c 2abd 6a59 963c 13ba 57bc
000001a0: 905c 8abc 8adf c0bc 7c21 7f3c 5b39 11bd
000001b0: 5e05 bd3d 4584 403b aa37 903d ec1e 47ba
000001c0: 8ca7 353d 8d72 b03c 2d54 3e3d c1cc 89bd
000001d0: f08e e8bc 64a2 dcbd 0ad2 46bc cef6 a23c
000001e0: b0a6 35bc 8735 b3bd d724 e4bd 1831 c939
000001f0: 3af8 2d3d 05f9 3b3d d8c6 86bd 78dc 133d
00000200: b684 52bd a291 8bbc 89fd f03d c8dc cb3d
00000210: e2d3 c53d c6c5 e1bc ff6a ac3d 42b7 273d
00000220: 75b6 7c3c a552 f03d 192c 63bd 3b6b 11be
00000230: dca3 13be 58f1 5b3d 1828 edbb c51e 26be
00000240: 6187 d63c f1c1 18bd 9da8 c0bc 3ad4 c33c
00000250: 96f3 fdbd e255 febd 6fd3 4abc 7ea8 c93c
00000260: ea21 8dbb 665e 703d 53b3 413e ffc6 67bd
00000270: 5817 97bb b685 543d db13 e0bc 6222 a9bd
00000280: 6fcb f8bd faf4 cd3c 5601 693d 38a6 82be
00000290: d76a 6ebd f5a0 e43b 92e8 a23c ec05 53bd
000002a0: 6cd8 5abc 1c65 ecbd 64ca 053c a24a e1bd
000002b0: f880 34be 0344 bd3c da00 da3c ebc0 0fbd
000002c0: 26e3 223d 7b8e 16bd 5cd5 3e3d c65e 683d
000002d0: 8d4a 333d 215a f53c fb70 5fbd 2af8 a53c
000002e0: 2456 eabc 0764 22bd 533b 31bd fd81 383d
000002f0: 62e0 053d 904c ec3c 1001 8abd e746 c83d
00000300: f577 1c3e 8a6b 8b3d e070 153d 6d08 5f3d
00000310: 9cd3 233e e153 5f3e d186 013d 74b8 cdbd
00000320: ad7f 293d e01e 633c 4655 073e d8e6 673c
00000330: ea24 d43d 997b c53b f467 523b 5059 6a3d
00000340: 9ee9 523d f2dd 89bd 2a7f 9ebd 5582 0cbd
00000350: 15f1 bc3b e556 933d f59a 863d 6dd5 d63b
00000360: 80e3 053d 237a 35bd 01ac a8bd cd76 3bbd
00000370: a27a 8abd b517 e4bd 2b99 53bd 3f0f 74bc
00000380: 3b04 0fbc ae16 acbd 0ef9 0f3c 5fd4 14be
00000390: a16d 31bb 0d85 f13c b2e2 85bd 9e64 a9bd
000003a0: 9ea4 a43c 6167 bd3c 107f a93d fd24 773d
000003b0: ac7f f53d 1397 4d3d c1e8 ea3d 15d0 d33d
000003c0: 2f85 c8ba faca f9bc 81f7 103d 5bef 703c
000003d0: 8dab 7a3b 4534 3b3d 0e2b a33d 883f 673d
000003e0: dc99 a33c c768 46bd a874 f03c 8a4e 7fbd
000003f0: d297 d1bc 7553 bcbd e6f7 7c3c 1210 c4bb

fc1.bias f4 [128]
0.020320768 -0.026264805 0.02177176 -0.015217839 -0.01650965 -0.055035565 0.0021590206 -0.02945144
0.0141012445 -0.007631336 -0.029255768 -0.020706158 -0.015097079 0.011984105 -0.037578758 -0.05080625
-0.034399994 -0.011671447 -0.025581846 0.013576988 -0.018338526 -0.028024256 -0.040869854 0.021378685
-0.022708414 0.015648045 -0.050563104 0.0015062881 -0.0053842426 0.013592292 0.04338611 -0.023224095
0.057086553 -0.096075 -0.014414381 -0.06423528 -0.028897524 -0.010154729 0.008578584 -0.035147406
-0.016358592 -0.03584977 0.011291709 -0.023346834 -0.0010104089 -0.030529043 0.008102806 -0.004584264
-0.020308051 -0.007823462 0.008896564 -0.013584973 -0.04090414 -0.07126694 -0.02732256 -0.021191897
-0.004202014 0.0518001 -0.022092562 -0.00028529434 -0.023406403 -0.085629255 0.04949402 -0.0007557154
-0.023920426 0.015319566 0.029295284 -0.057158276 -0.05469642 0.014508511 -0.028937869 -0.01583153
-0.017718976 -0.053215478 -0.018511383 0.030961238 -0.046287615 -0.03752099 -0.032337308 -0.051218655
0.025921788 0.01538184 -0.03112194 0.08396974 -0.0064702425 8.97464e-05 0.009473127 0.042282537
0.004175247 -0.022625906 -0.044018015 0.03464794 -0.0040352065 0.0031153464 0.030736938 -0.0045644175
-0.030340496 0.0431272 -0.02500317 0.009992466 0.065851234 -0.016239904 -0.07051039 0.014618519
0.057921857 -0.026420219 -0.010136529 -0.033344217 -0.05417504 -0.04931622 -0.06429897 -0.01792084
-0.051458627 -0.009253568 -0.07417622 0.049247745 0.01581719 -0.019111997 -0.008452241 0.008261958
-0.019541405 0.017717518 0.011688044 -0.010676314 0.022224614 -0.04576223 0.03966781 -0.03974481
00000000: bd77 a63c 4a29 d7bc b15a b23c 3e54 79bc
00000010: 3f3f 87bc f96c 61bd 5b7e 0d3b 2544 f1bc
00000020: e808 673c 4910 fabb cba9 efbc f69f a9bc
00000030: bd59 77bc fb58 443c 2fec 19bd 371a 50bd
00000040: 02e7 0cbd 9939 3fbc 0591 d1bc 0472 5e3c
00000050: ad3a 96bc 2093 e5bc 2667 27bd 5a22 af3c
00000060: ff06 babc 5430 803c 421b 4fbd a46e c53a
00000070: 4d6e b0bb 34b2 5e3c a2b5 313d 7540 bebc
00000080: 97d3 693d f8c2 c4bd 4c2a 6cbc c98d 83bd
00000090: 80ba ecbc 0560 26bc 308d 0c3c baf6 0fbd
000000a0: 7402 86bc 35d7 12bd dc00 393c dc41 bfbc
000000b0: b26f 84ba 0b18 fabc a2c1 043c 9837 96bb
000000c0: 125d a6bc fa2d 00bc e5c2 113c 8293 5ebc
000000d0: 198b 27bd 67f4 91bd 90d3 dfbc a19a adbc
000000e0: 0cb1 89bb 572c 543d 76fb b4bc 8f93 95b9
000000f0: c9be bfbc 645e afbd 3eba 4a3d 341b 46ba
00000100: c5f4 c3bc ebfe 7a3c aafc ef3c cc1e 6abd
00000110: 5a09 60bd 1bb5 6d3c 1c0f edbc 20b1 81bc
00000120: 6327 91bc 79f8 59bd 2fa5 97bc 6ca2 fd3c
00000130: 1598 3dbd 9caf 19bd 2074 04bd a7ca 51bd
00000140: ee59 d43c 1d04 7c3c 70f3 febc 54f8 ab3d
00000150: 5404 d4bb 3b36 bc38 2d35 1b3c 7430 2d3d
00000160: 83d0 883b f759 b9bc 3c4c 34bd 00eb 0d3d
00000170: c439 84bb d72a 4c3b 08cc fb3c 1c91 95bb
00000180: a28c f8bc 26a6 303d 73d3 ccbc 71b7 233c
00000190: 03dd 863d 8c09 85bc c067 90bd 8382 6f3c
000001a0: 783f 6d3d 376f d8bc af13 26bc f293 08bd
000001b0: a6e6 5dbd ceff 49bd 2eaf 83bd bace 92bc
000001c0: 48c6 52bd 479c 17bc b4e9 97bd 01b8 493d
000001d0: 0d93 813c c390 9cbc 457b 0abc 2a5d 073c
000001e0: 4c15 a0bc 5424 913c 367f 3f3c b5eb 2ebc
000001f0: 6510 b63c 2d71 3bbd b77a 223d 74cb 22bd

fc2.weight f4 [10, 128]
0.04543156 -0.01426119 0.00697403 0.10844706 -0.048478886 0.0026441552 0.114086494 -0.19015923
0.09514335 -0.016126962 -0.12065253 0.059534583 0.044961955 0.03599569 -0.14441025 -0.11421546
0.23015437 -0.19283587 -0.012664536 -0.02651125 0.053198352 0.030383825 0.03600073 -0.2376881
0.01750457 0.053782783 -0.30689692 -0.0010692502 0.052138407 -0.18737532 -0.13070104 -0.11529354
-0.1746131 -0.08614801 0.066259906 0.0053059882 0.09018779 -0.21243042 -0.018444274 0.055644635
-0.0551384 -0.04775947 -0.20608763 0.009023463 -0.060842086 -0.019440752 -0.1322298 0.032483242
-0.032533385 0.018894982 -0.1565018 -0.025456347 -0.043324996 -0.17177811 0.043453414 0.10688617
0.10090671 0.060416542 -0.014576574 0.043938883 0.08805398 -0.08995097 -0.020054031 -0.051946893
0.036780786 0.065805584 0.054029636 0.02135432 -0.11392527 0.030663054 0.0079748845 -0.2512716
-0.11965649 0.0015458411 0.038388457 0.0016602285 -0.1934366 0.041986402 0.04356852 0.021290964
-0.21244934 -0.01781352 0.016163357 -0.08589549 0.048170954 0.08240987 -0.07510063 0.11202642
0.011845103 0.0034172272 0.07815276 -0.29676872 0.03882648 0.07171052 -0.13305254 0.07150863
-0.22805698 0.017287614 -0.020984937 -0.0050751343 0.10431818 -0.117625415 -0.22921596 -0.06884386
-0.08036237 0.01868466 -0.005930432 -0.00534057 -0.049934354 -0.20515797 0.057273462 0.036800537
0.012892774 0.044749636 0.16385762 -0.13556392 -0.09481123 0.010205635 0.17646867 -0.14241377
-0.14174832 -0.04303494 0.12306428 0.08787047 0.14126587 0.007765867 0.097117536 -0.15655826
0.109836474 -0.04089343 0.027713176 -0.16603515 -0.08841743 0.09454146 0.023993291 0.10860027
0.102747545 0.06814869 0.061771616 -0.13028716 0.0088418815 0.09005348 -0.0731879 -0.1091738
0.22837025 0.0052168863 0.00090651575 -0.09934899 0.00662722 0.059542324 0.0072092316 -0.019056411
-0.1812249 0.108944245 0.12860292 0.07866481 -0.013073601 0.027787901 -0.027088253 0.021802846
0.084758855 -0.08769627 -0.06416865 -0.060510103 -0.057621833 0.040504552 0.09356534 -0.09252291
-0.0034665782 -0.012153294 0.0506051 -0.07697614 0.007401783 -0.26329347 0.08767115 0.025058258
0.035424463 -0.04940752 0.13420285 -0.028313313 0.06315928 -0.20161173 -0.0041766325 -0.18253778
-0.05058966 -0.08165414 -0.085167795 -0.044343386 -0.15310389 -0.14541179 0.063295424 -0.09663724
-0.10349626 -0.07570655 -0.052327834 -0.12202978 0.109685 -0.06315993 -0.15780969 -0.13186815
0.008436759 -0.19672988 -0.050362714 0.08767039 0.013842827 -0.0422211 -0.04954593 -0.019707505
0.0359715 -0.027923625 -0.15583196 0.09554023 -0.018624006 -0.25836912 0.01514923 -0.10306771
-0.08074617 0.14310908 -0.11952867 0.10078683 -0.046874393 0.10100703 0.0412129 -0.17338155
-0.05977501 -0.089336805 0.003670598 -0.031246979 0.07167998 -0.01558364 0.15581933 0.06328396
0.23503904 -0.102073826 -0.07169543 -0.11683409 0.0062803067 -0.24518517 -0.043596912 -0.023287518
-0.20467107 -0.039171197 0.11725145 0.07523836 -0.11838201 -0.08149616 0.11971224 0.11562078
-0.06613905 0.022942271 0.023381785 -0.02423793 0.0059851324 0.033932697 0.013429767 -0.04358858
00000000: 7216 3a3d c4a7 69bc 6786 e43b 7e19 de3d
00000010: cc91 46bd 9049 2d3b 2ea6 e93d 1ab9 42be
00000020: 84da c23d b11c 84bc ac18 f7bd 89da 733d
00000030: 072a 383d 3770 133d 48e0 13be cce9 e9bd
00000040: 96ad 6b3e c476 45be ea7e 4fbc 1f2e d9bc
00000050: 84e6 593d 80e7 f83c 8075 133d 8264 73be
00000060: be65 8f3c 564b 5c3d 9821 9dbe 1526 8cba
00000070: 158f 553d 51df 3fbe 7ed6 05be 051f ecbd
00000080: c7cd 32be 5e6e b0bd 46b3 873d dbdd ad3b
00000090: 60b4 b83d 5c87 59be 7218 97bc a1eb 633d
000000a0: ced8 61bd 6f9f 43bd a308 53be 26d7 133c
000000b0: 8d35 79bd 3642 9fbc 4067 07be 260d 053d
000000c0: ba41 05bd a6c9 9a3c 0242 20be d489 d0bc
000000d0: 8d75 31bd 9ae6 2fbe 35fc 313d 23e7 da3d
000000e0: 2da8 ce3d 5677 773d 95d2 6ebc 42f9 333d
000000f0: a555 b43d 3738 b8bd 5a48 a4bc 44c6 54bd
00000100: 73a7 163d 14c5 863d 2e4e 5d3d 41ef ae3c
00000110: a751 e9bd 1631 fb3c 17a9 023c aca6 80be
00000120: 760e f5bd d29d ca3a 373d 1d3d 069c d93a
00000130: 3e14 46be eff9 2b3d e874 323d 636a ae3c
00000140: 528c 59be a9ed 91bc 0469 843c fae9 afbd
00000150: e84e 453d 82c6 a83d 5cce 99bd 1c6e e53d
00000160: f711 423c 8ff3 5f3b 8e0e a03d 12f2 97be
00000170: 8408 1f3d f7dc 923d ed3e 08be 1e73 923d
00000180: c587 69be c19e 8d3c 9ae8 abbc 504d a6bb
00000190: c5a4 d53d 98e5 f0bd 97b7 6abe 02fe 8cbd
000001a0: 0795 a4bd 9210 993c 1254 c2bb f3ff aebb
000001b0: f787 4cbd ee14 52be 9497 6a3d 29bc 163d
000001c0: 373c 533c 654b 373d 4bca 273e 45d1 0abe
000001d0: 642c c2bd 8935 273c 34b4 343e ead4 11be
000001e0: 7926 11be 6845 30bd 2009 fc3d 6ff5 b33d
000001f0: 00a8 103e d078 fe3b 8fe5 c63d cf50 20be
00000200: f2f1 e03d df7f 27bd be06 e33c 1e05 2abe
00000210: 3314 b5bd f49e c13d 948d c43c d169 de3d
00000220: 4e6d d23d 8a91 8b3d 3c04 7d3d ff69 05be
00000230: 8add 103c f56d b83d 8ae3 95bd 8396 dfbd
00000240: e4d9 693e 6af2 aa3b 3ea3 6d3a 7c77 cbbd
00000250: 2729 d93b a7e2 733d 6b3b ec3b 311c 9cbc
00000260: 0593 39be 291e df3d 7cb0 033e 041b a13d
00000270: a832 56bc 74a3 e33c 2fe8 ddbc e29b b23c
00000280: 0d96 ad3d 1a9a b3bd da6a 83bd 71d9 77bd
00000290: df04 6cbd 1ae8 253d 2f9f bf3d a77c bdbd
000002a0: 882f 63bb 9c1e 47bc 4b47 4f3d aba5 9dbd
000002b0: a88a f23b 67ce 86be ef8c b33d fa46 cd3c
000002c0: 3e19 113d 8a5f 4abd 796c 093e 52f1 e7bc
000002d0: a759 813d 4e73 4ebe 22dc 88bb 2feb 3abe
000002e0: 1a37 4fbd 493a a7bd 746c aebd 69a1 35bd
000002f0: 44c7 1cbe d4e6 14be 08a1 813d bfe9 c5bd
00000300: d9f5 d3bd 090c 9bbd b655 56bd c0ea f9bd
00000310: 87a2 e03d fe59 81bd dd98 21be 7208 07be
00000320: 553a 0a3c 8f73 49be 2249 4ebd 898c b33d
00000330: 06cd 623c 08f0 2cbd acf0 4abd a271 a1bc
00000340: da56 133d 16c0 e4bc 6a92 1fbe 99aa c33d
00000350: 5f91 98bc f548 84be 7a34 783c 2a15 d3bd
00000360: 3f5e a5bd 308b 123e 73cb f4bd 5369 ce3d
00000370: 5dff 3fbd c6dc ce3d dcce 283d ef8a 31be
00000380: a4d6 74bd 37f6 b6bd 6a8e 703b aaf9 ffbc
00000390: f4cc 923d 8652 7fbc 1a8f 1f3e 059b 813d
000003a0: 13ae 703e 150c d1bd 0ed5 92bd b646 efbd
000003b0: 08cb cd3b d211 7bbe ad92 32bd 77c5 bebc
000003c0: 4b95 51be fa71 20bd 8721 f03d 9216 9a3d
000003d0: 4472 f2bd 75e7 a6bd b12b f53d 96ca ec3d
000003e0: e973 87bd 6ef1 bb3c 288b bf3c a08e c6bc
000003f0: ee1e c43b 03fd 0a3d 8708 5c3c f089 32bd

fc2.bias f4 [10]
0.036664404 -0.03965093 -0.004378866 0.047834065 -0.079298995 -0.09463332 -0.027978418 -0.030113328
0.030832248 -0.021462403
00000000: 6a2d 163d 0369 22bd 977c 8fbb a7ed 433d
00000010: 8367 a2bd 1dcf c1bd ff32 e5bc 3ab0 f6bc
00000020: e993 fc3c ecd1 afbc
