CNN_PyTorch/mnist_cnn.pth (torch, 903256 bytes, 8 tensors)

conv1.weight f4 [32, 1, 3, 3]
000000 3c c4 0e bd 54 e1 6a 3e 77 61 f6 3e e5 1a d5 be
       -0.034855112 0.22937518 0.48121235 -0.4162208
000010 38 bc 37 bf e7 d3 68 bf d3 52 0c 3e c1 e0 d4 3e
       -0.71771574 -0.9094834 0.1370347 0.41577724
000020 4f 7f 7d 3e ea c0 ce be df 26 29 3e 48 57 db be
       0.24755596 -0.40381557 0.16518734 -0.42840028
000030 01 5b b6 3e 57 d5 c4 3e 59 43 0d 3e 96 e8 6b be
       0.35616305 0.38444015 0.13795222 -0.23037943
000040 50 1d 1c bf da df a1 3c 5e 85 2e 3e b3 b4 4f bc
       -0.6098223 0.019760061 0.17043063 -0.012677359
000050 9e 17 d6 be 49 a5 ac bb 41 e0 f7 3e 8d bb bd bd
       -0.41814893 -0.005268727 0.4841328 -0.09264288
000060 7c 73 0a bf 2a 91 1b 3e f9 a9 af 3d f8 85 91 bd
       -0.54082465 0.15192094 0.085773416 -0.07105631
000070 98 a3 ba bd a3 76 ea bd 46 a9 a8 3d db e3 ff be
       -0.09113234 -0.114484094 0.08235411 -0.49978527
000080 73 e1 65 3e 3f 53 bf 3d e5 3f 86 be 38 b2 ce 3e
       0.22449283 0.0934205 -0.26220623 0.40370345
000090 01 07 c3 be 98 cd e3 3d 86 c3 c1 be 3e 1c d7 bc
       -0.3809128 0.11123198 -0.37844485 -0.026258584
0000a0 d9 c1 99 bc 2e 00 73 be 03 35 ae be 18 dc 0b 3e
       -0.018769192 -0.23730537 -0.3402482 0.13658178
0000b0 12 ac bf be 5a 71 c1 3e 3d 71 a9 be 69 8a cf be
       -0.37435967 0.37781793 -0.33094206 -0.40535286
0000c0 ff b5 5b 3e 49 67 7c 3e 27 6c df be c7 54 ff 3d
       0.21456145 0.24648775 -0.436372 0.12467342
0000d0 7d 73 06 3e 5c c1 75 3e 15 76 05 3e c9 4b c8 bd
       0.13129993 0.23999542 0.13033326 -0.0978008
0000e0 c7 d2 8d 3d a4 8e e9 bd f9 5b fe bd 31 ee fd 3d
       0.06924968 -0.1140416 -0.12419886 0.12398947
0000f0 09 95 20 3e f1 8d 1a 3e 8d 11 54 3e bc 9c cf 3e
       0.15681852 0.15093209 0.2070982 0.40549266
000100 7b d0 c1 bd bd f7 61 3e 41 66 65 3e 9a 5d 0a bf
       -0.094635926 0.22067161 0.22402288 -0.54049075
000110 94 99 8d 3e 98 f3 49 3e 39 f2 83 be 97 6a 24 3e
       0.27656233 0.1972183 -0.2577074 0.16056286
000120 91 94 df 3d 71 5c a2 bc af 54 03 3f 17 c1 35 be
       0.10917009 -0.01981947 0.5130109 -0.17749439
000130 3a e1 19 bf 8f e0 2f 3e d3 3b 1d 3e c2 88 36 be
       -0.60109293 0.17175506 0.15354852 -0.17825606
000140 7b 87 6f bd 23 01 91 3e da b7 3c 3e 1b cb 43 3e
       -0.058478814 0.2832118 0.18429509 0.19120447
000150 69 ce b5 bc 77 2e 61 bd e5 07 38 3e b1 0c 8c be
       -0.02219315 -0.054975953 0.17971762 -0.27353433
000160 46 de 39 be 5b a6 98 be 1f a0 b9 3e 21 a0 39 3e
       -0.18151197 -0.2981442 0.36254975 0.1812749
000170 2d 5a d0 3e f0 40 a2 bd bc d1 f2 3c 2b 61 5e 3d
       0.406938 -0.07922542 0.029641025 0.054291885
000180 df 2c 05 bf f0 e7 6c be 9e e6 c8 be ef 80 6c 3e
       -0.5202159 -0.23135352 -0.39238447 0.2309606
000190 f4 b1 62 be cd f7 c6 be d3 c7 7a bd d0 ab dd 3d
       -0.22138196 -0.38860932 -0.061225723 0.10823786
0001a0 a9 f1 8f be b8 97 b1 3d 11 fa aa 3e a2 b3 09 be
       -0.2811406 0.08671516 0.3339391 -0.1344743
0001b0 ba f4 bc 3e d5 c7 8c 3d 51 4d 87 be 4b 0b 14 3e
       0.36905462 0.068740524 -0.26426175 0.14457433
0001c0 02 f0 b9 be 4d bc 20 be ec de 67 be 97 e1 b1 be
       -0.36315924 -0.15696831 -0.22643632 -0.34742424
0001d0 47 5e 34 3e df 04 79 be ab dc 41 be 1f c6 67 be
       0.17614089 -0.24318264 -0.18931834 -0.22634171
0001e0 e6 a5 a3 bd 59 59 50 be 51 2d bb 3e f3 3f 94 3e
       -0.07990627 -0.20346583 0.3655801 0.2895504
0001f0 38 e4 ba 3e d1 5c c4 bd 3d 5f ac be b8 f0 7e 3e
       0.36502242 -0.09588016 -0.3366641 0.24896514
000200 bc 39 cb 3d 92 b3 f1 3d 58 ef b4 bd bf 6c c5 3d
       0.09923121 0.118018284 -0.08834714 0.09639882
000210 f3 a6 1f be b5 98 9b bd e9 a2 9f 3e 69 da 60 3e
       -0.1559103 -0.07597486 0.31178978 0.21958317
000220 16 82 0a 3e b2 8c 44 be 13 35 6d 3e 09 6b a2 be
       0.13526186 -0.19194296 0.23164777 -0.31722286
000230 ca 52 9e 3c f0 35 4c 3e 9c 80 a3 3c 9b 63 c5 be
       0.019326586 0.1994245 0.019958787 -0.38552555
000240 f3 00 da bd 7c b4 03 bf 1a dd 78 be 60 94 7a 3e
       -0.10644712 -0.5144727 -0.24303094 0.24470663
000250 90 7c 2c bd e5 d2 86 bd 80 53 98 3e 20 a2 97 3e
       -0.04211098 -0.06583194 0.29751205 0.2961588
000260 af 97 a8 3d 66 c1 7a 3e ef eb ba bd eb 78 c4 be
       0.08232056 0.24487838 -0.09127032 -0.38373503
000270 23 6f 62 be c1 a4 a2 be 2b 37 a9 bd ff 85 67 be
       -0.22112708 -0.31766322 -0.082624756 -0.22609709
000280 40 dd 4a be e2 d5 de 3e bc 55 a8 3e 74 cc 86 3e
       -0.19810963 0.43522555 0.3287791 0.2632786
000290 aa e9 44 3e 16 20 77 bd 03 8d 06 3e e1 d0 c5 bc
       0.19229761 -0.060333334 0.13139729 -0.024147453
0002a0 65 ea 83 be 02 08 c2 be 8d 0a fe be c3 16 e6 bd
       -0.25764766 -0.37896734 -0.49617425 -0.1123481
0002b0 0a 2b 04 3f 6c d8 8e 3a b3 74 f4 be c0 24 1e 3e
       0.5162817 0.0010898239 -0.47745284 0.15443707
0002c0 e2 6f 98 3e 29 08 b7 be 84 48 b6 be bd bb c1 bd
       0.2977286 -0.35748413 -0.356022 -0.09459636
0002d0 24 d5 bc 3e d3 75 47 3d 34 6c da be dd d5 fd 3e
       0.36881363 0.04869635 -0.42660677 0.49577227
0002e0 6b 30 22 be 42 83 82 be 85 96 aa bd 3b ca 54 be
       -0.15838782 -0.25490767 -0.083294906 -0.2078027
0002f0 a6 f0 b5 be 7e fc 86 3e 03 f9 88 3e 59 66 5d 3e
       -0.35535163 0.2636451 0.2675248 0.21621074
000300 d6 79 bd be 46 d4 f1 3c 00 e8 99 bd 0e 2f 4a 3e
       -0.37007016 0.029520165 -0.075149536 0.19744512
000310 31 56 dc 3e 86 ec f1 bd 00 90 9d be 56 84 78 be
       0.4303451 -0.118126914 -0.30773926 -0.24269232
000320 55 3a 85 be ab 25 d3 3d c0 49 e8 bd 99 60 e8 bd
       -0.26021066 0.10309919 -0.11342192 -0.113465495
000330 df 2b 96 3e 4f 52 78 3d 6f 4e d1 3e 9d 25 10 3f
       0.29330346 0.06062537 0.40880153 0.56307393
000340 c3 41 ae bd 69 07 aa bd 0f e2 59 be f4 8a 38 bf
       -0.08508637 -0.083021946 -0.21277641 -0.72087026
000350 6c 3b bc bd 25 e7 5a be 05 2a 9d 3e 7e 27 e6 3e
       -0.09191021 -0.21377237 0.3069612 0.44952005
000360 a7 c6 81 be d1 36 b4 bd 35 28 f3 3c 77 09 16 be
       -0.25346872 -0.08799518 0.029682258 -0.14652048
000370 0a 10 3f be db 25 52 be 7f 43 33 3e 5a 7d 09 bd
       -0.18658462 -0.20522253 0.17506216 -0.03356681
000380 c2 87 b9 be 51 c1 ff 3d 67 4d 54 be 56 c1 8b 3d
       -0.36236387 0.12488044 -0.20732652 0.06823985
000390 42 91 a9 3c ff d1 4e bd 6e 0e dd 3e a3 b0 a4 3e
       0.020699147 -0.050493237 0.4317507 0.32166013
0003a0 bb ef 09 bf c2 3d 38 3d 52 e3 f8 be a9 12 aa 3c
       -0.53881425 0.04498077 -0.48610932 0.020760851
0003b0 98 d6 cb bd d7 25 17 3e e3 8b ed 3e bc c4 06 3e
       -0.0995304 0.14760529 0.46395788 0.13160986
0003c0 c7 eb cc bd b5 b9 b8 3c 0a e0 f2 be 46 42 70 bc
       -0.100059085 0.02254949 -0.47436553 -0.014664238
0003d0 ca 78 5d be 40 7a 91 3e 25 c0 be be dd fb 52 3d
       -0.21628109 0.28413582 -0.3725597 0.051509727
0003e0 6c 3b 90 3e c7 7d a6 be d9 21 67 be d7 36 35 3e
       0.28170335 -0.32517835 -0.22571506 0.17696701
0003f0 90 09 7d be a2 34 9d be 84 2a 43 3e c3 ca ce be
       -0.24710679 -0.30704218 0.19059187 -0.4038907

conv1.bias f4 [32]
000000 5b 6a 01 bf b2 cf 47 be e6 99 b4 bd ab 5f a2 bd
       -0.5055291 -0.19512823 -0.08818416 -0.079284035
000010 57 33 6e be 63 20 13 be 23 04 8f be 2b 60 b9 be
       -0.23261772 -0.14367823 -0.27932844 -0.36206183
000020 7a 71 37 bd ae 71 ae 3c 4e e6 88 bd f0 98 db bd
       -0.044785954 0.021294441 -0.06684552 -0.1072253
000030 77 5f 4d be 69 7a 8e 3c fd f6 73 be 64 a6 62 bd
       -0.20055948 0.017392354 -0.23824687 -0.055334464
000040 d3 14 fd 39 c3 ae ff bd a6 52 28 be 74 74 b2 bd
       0.00048271436 -0.12484505 -0.16437778 -0.08713618
000050 d1 e9 78 be e5 de 87 be 49 d5 00 be 07 b8 7b bd
       -0.24307944 -0.26537243 -0.12581362 -0.0614548
000060 bf 52 f7 3d cf ea 85 be 37 a8 b5 bd 67 8a 07 be
       0.120763294 -0.26155707 -0.08869975 -0.1323639
000070 d3 7f 89 bd 38 7e 95 be 6e f1 83 bb 44 6f cc bd
       -0.06713834 -0.2919786 -0.0040265834 -0.0998216

conv2.weight f4 [64, 32, 3, 3]
000000 6a d0 8a 3d e0 0c ca bd 34 c4 f1 bd 89 31 90 be
       0.06778033 -0.09865737 -0.11805001 -0.28162792
000010 fe fb e9 be 20 ef 98 be 78 f8 be be 15 be 1a be
       -0.45700067 -0.29869938 -0.37298942 -0.15111573
000020 59 a2 ff bd 28 17 f1 bd 4b 41 bf bd 8c 22 92 bd
       -0.12482137 -0.11771995 -0.093386255 -0.071354955
000030 cf e1 3c be f0 bc f6 be f5 3d bb be 5f c4 1d be
       -0.18445514 -0.48191023 -0.36570707 -0.15406941
000040 65 40 a5 be 69 16 b2 be c8 98 47 bd 4d 78 65 3d
       -0.32275692 -0.34782723 -0.048729688 0.05602293
000050 d0 0f 36 be c8 eb 61 be cb 1f 7d be 09 cd d9 bd
       -0.1777947 -0.220626 -0.2471916 -0.106348105
000060 6a c1 d6 bd 0e 6c bd bd 2d 5a 3b bd e4 5f 1f 3e
       -0.104861096 -0.092491254 -0.045740295 0.15563923
000070 82 53 23 3e 5a 59 00 be 60 8c 54 3d e0 6f 82 3d
       0.15949824 -0.12534085 0.051891685 0.06368995
000080 80 ec 40 be 04 63 96 be f0 72 40 be ea 05 2c bd
       -0.18840218 -0.29372418 -0.18793845 -0.041997828
000090 d5 1c f6 3b 11 51 39 be 13 03 e3 bd fa 84 f0 bd
       0.0075107613 -0.1809733 -0.11084571 -0.11744113
0000a0 3b 88 30 be 01 09 59 bd d1 0b 36 bd 28 0b 33 3d
       -0.17239468 -0.052987102 -0.044444863 0.04371181
0000b0 24 ed 37 bb 51 f4 7a be 29 be 8a bd f6 9d 75 bc
       -0.002806493 -0.24507262 -0.067745514 -0.014991274
0000c0 74 b6 32 be 0a 1f be bd 35 0e 2a bc 2c 4c e7 bd
       -0.17452413 -0.09283264 -0.010379364 -0.112938255
0000d0 8d f6 54 be b6 80 86 be 86 b2 26 bd e8 24 a5 3c
       -0.20797177 -0.26270074 -0.040697597 0.0201592
0000e0 4d 1b 44 bc 93 b6 4f bd 1d 1f 24 be a1 84 cf bd
       -0.0119694 -0.050711226 -0.16027494 -0.10132719
0000f0 f8 75 85 be 90 40 94 be f0 08 32 3d d3 3c de bd
       -0.26066566 -0.28955507 0.043465555 -0.10851445
000100 24 9c 2c bd 40 20 fe bd d8 95 8b bd bc de cb bd
       -0.042141095 -0.12408495 -0.0681569 -0.099545926
000110 d7 f0 6e be eb 99 a0 bd 28 8f 8b be aa ca 9c be
       -0.2333406 -0.078418575 -0.27257657 -0.3062337
000120 9e ba a2 3d 84 60 b2 3d 68 b6 65 be d8 88 a3 3c
       0.07945751 0.08709815 -0.22432864 0.019962713
000130 f1 88 c0 bd db 77 ec be c5 d6 2e bd 1e 8c 6c be
       -0.094011195 -0.46185192 -0.04268529 -0.23100325
000140 2c 16 ac be 66 ca 38 be a4 99 b4 3d bf ec 69 3d
       -0.33610666 -0.18045959 0.08818367 0.057110544
000150 84 e8 8d bd 28 30 ab 3d 79 9a e2 bc 80 6f fc 3d
       -0.069291145 0.083587945 -0.027661549 0.123259544
000160 e1 6a a5 3d da c9 28 bd 1b c9 41 be 6b 97 11 bd
       0.08077026 -0.041208126 -0.18924372 -0.035544794
000170 7a 8e 96 3d d2 7d 8a bd ca f5 ab 3d fc e0 35 3d
       0.07351394 -0.067622796 0.0839649 0.044404015
000180 61 bf 7b 3e 74 47 08 3e 10 12 73 3c d7 08 49 bd
       0.24584724 0.13308507 0.014835849 -0.049080696
000190 48 bf 4f 3c 1b ae c9 3d f1 d7 c6 bd 67 f1 d9 bd
       0.012679882 0.09847661 -0.09709156 -0.10641747
0001a0 c4 b9 53 3c c3 73 08 be ae 0e 6f be 33 6f 80 be
       0.012922708 -0.1332541 -0.23345444 -0.25084838
0001b0 cc ca e4 bd 44 9a 37 3e c7 d2 cb 3d ff 5c cb 3d
       -0.11171493 0.17929941 0.09952312 0.09929847
0001c0 90 91 c8 3d 7a 19 63 3e 32 fd 00 3e 1e d0 8b 3c
       0.09793389 0.22177687 0.12596586 0.017067011
0001d0 02 18 ed 3d d7 ae 06 3d 38 98 fc 3d e8 e3 68 bd
       0.11576845 0.032881584 0.12333721 -0.056857973
0001e0 e6 5d 65 3c 0a 91 de bd 4b 8a ca be 61 68 45 be
       0.013999438 -0.10867508 -0.39558634 -0.19278099
0001f0 55 84 96 bd 7d 16 97 3d 76 ee 39 3d 37 45 bb 3d
       -0.07349459 0.07377336 0.04539343 0.09144061
000200 3b 77 83 3d de ea e0 bd f4 50 d6 bb 29 5e 13 3c
       0.06419226 -0.10982297 -0.006540412 0.0089946175
000210 ce 08 64 be b8 84 08 be 36 25 32 bd 9d 47 2c be
       -0.22268984 -0.13331878 -0.04349252 -0.16824193
000220 9e c2 c1 3d 97 c2 24 3e 28 d4 7f 3d 8b 6c 99 3c
       0.094609484 0.16089855 0.062458187 0.018728515
000230 67 05 f8 3d 01 31 4c bd 9b 9d 1c be 3f 5a 38 be
       0.121104054 -0.04985142 -0.15294497 -0.18003176
000240 df d9 fd bc 47 f4 0b 3c 2a d3 e2 bd ae c1 d8 bd
       -0.030987678 0.008542127 -0.110754326 -0.105838165
000250 ee e1 5c be 1d 8b 1c bf 89 6d 11 be 9b 3a da bd
       -0.2157056 -0.6114977 -0.1420194 -0.10655709
000260 5f df c9 bd fd 9e 7d 3d a0 fa cd 3a d2 7c 03 bd
       -0.09857058 0.0619192 0.0015714951 -0.03210146
000270 87 34 7f 3d 6c 26 a1 3d c3 12 13 3e aa 0c 5e 3d
       0.062305953 0.078686565 0.14362626 0.054211296
000280 41 53 ce 3d 17 1d e4 3d f3 89 23 be 27 4d 99 bd
       0.10074473 0.11138361 -0.15970592 -0.07485419
000290 7f 97 a4 3d 09 f2 04 bd 97 7c c6 3d fe 23 92 3d
       0.08036708 -0.032457385 0.096917324 0.07135771
0002a0 53 41 49 3e 85 b4 17 3d fc 99 29 bd 27 c4 52 3d
       0.19653825 0.03703739 -0.041406617 0.051456597
0002b0 89 af 5e 3c 5e 5c 92 be 87 4e 35 be f8 0e fe 3b
       0.0135916555 -0.28586096 -0.17705737 0.0077532493
0002c0 59 ce 8a be 3f 59 f1 3d 11 38 aa 3d fa 2e 2a be
       -0.27110556 0.117846005 0.08311475 -0.16619483
0002d0 cd 12 9a be da 77 43 3e 5a 97 9c 3e 08 b6 18 3e
       -0.3009247 0.19088688 0.30584222 0.1491319
0002e0 ef ca f7 3d ee 3a 79 3e 4a bd d3 3d 36 97 25 bd
       0.120992534 0.24338886 0.103388384 -0.04042741
0002f0 19 c5 c7 ba 8b 48 a3 bd a2 e7 a0 3d b2 87 02 3e
       -0.0015241235 -0.07972821 0.078566805 0.12747076
000300 3b bd 8c bd fc 27 a3 bd 10 d8 cd bd c1 24 29 be
       -0.0687203 -0.07966611 -0.10050976 -0.16517927
000310 91 c6 a3 be c1 79 82 be 1d 19 4b 3c 17 e2 a8 3c
       -0.31987432 -0.25483516 0.012396124 0.02061562
000320 90 76 c2 bc a5 55 54 bd 5e 37 4b bd 3b 53 2a be
       -0.023738176 -0.05183949 -0.04961335 -0.16633312
000330 88 54 8d bc 5d a8 ef 3c d3 86 81 3d ef d0 3e 3d
       -0.017252222 0.029255087 0.06324544 0.046585973
000340 0c 8d d6 3c 3a 50 67 3c 3d fc 4f bd 31 99 0a 3d
       0.026190303 0.014118249 -0.050777663 0.0338375
000350 12 1d 2b 3d 69 44 a7 bc bc 2c 83 bd 87 e5 6e 3d
       0.04177577 -0.020418363 -0.06405017 0.058324363
000360 73 9e 30 bd 1b c9 9d bd 45 49 fc bc 3c 9b a6 bd
       -0.04311986 -0.077043734 -0.030796656 -0.08135077
000370 7f ce a3 ba 63 fc 1d 3d cb 07 11 3e 21 ee cf 3d
       -0.0012497454 0.038570773 0.14163129 0.10152841
000380 2b 3e 49 3d 29 3a ae bc e8 70 3c bc fa 6a 78 be
       0.049131554 -0.021267967 -0.011501528 -0.24259558
000390 3f c1 82 bd 92 ec 2b be 2f 0c 8a be b3 ba 02 be
       -0.06384515 -0.16789463 -0.2696242 -0.12766533
0003a0 8a 24 a9 be 26 7b 9c be da 69 76 bd af c2 44 bc
       -0.3303569 -0.30562705 -0.06015954 -0.012009307
0003b0 e0 4e 1c 3c f9 69 4e 3b 52 fa 0d 3d 4d 03 ab bd
       0.00954029 0.003149627 0.034662552 -0.08350239
0003c0 89 f8 e8 bc 1e 33 9c bd 51 47 8c be 32 2a 09 3e
       -0.028438823 -0.07626937 -0.2739816 0.13395002
0003d0 29 e1 2a 3e b1 08 82 3c 39 62 a3 3d 2f e0 4b 3e
       0.16687454 0.015873285 0.07977719 0.19909738
0003e0 ad 08 81 be 35 b1 1a be e9 03 23 bd 35 0a df bc
       -0.25201932 -0.15106662 -0.03979865 -0.027226547
0003f0 66 a9 29 3e cb 7f 13 3e 28 91 b8 3d 8a dd aa 3d
       0.16568527 0.14404218 0.09012061 0.083430365

conv2.bias f4 [64]
000000 bc a2 84 3d 8a bd 0b 3d 05 4a b0 bb 60 5f 1e 3d
       0.064763516 0.034116305 -0.0053799176 0.038665175
000010 b3 be 74 bc af 44 6e 3c 03 b3 6f bb 39 04 97 bc
       -0.014938044 0.014542743 -0.0036575205 -0.01843463
000020 fd 58 56 bd b2 b4 1e bd 39 c7 65 bd f8 3a c7 39
       -0.05233096 -0.038746543 -0.056098197 0.00038000173
000030 31 87 00 3d 67 3c dc bd 8d 0d b1 3c e7 a5 2d 3d
       0.03137893 -0.10753708 0.021612907 0.042394545
000040 3a 0d 58 bc 50 01 fc bb e4 77 38 bc 8d 5c 8b bd
       -0.013186747 -0.007690586 -0.011259053 -0.06804762
000050 30 97 78 3d 68 3d 5f bc f1 f0 58 bd 45 6a 5b bd
       0.06069106 -0.01362548 -0.052964155 -0.053568143
000060 19 21 a2 bc f1 46 71 bd 3b c5 67 bc 49 ef 99 bd
       -0.019791173 -0.058905546 -0.0141461445 -0.07516343
000070 76 bb 0c bd b6 89 5d 3a a4 ea 29 bd 0c 77 6d 3d
       -0.034358464 0.00084510015 -0.041483536 0.05797486
000080 54 8e 54 3c 29 51 a0 bd d9 50 99 3c e0 8a fe 3c
       0.012973387 -0.0782798 0.018715309 0.03107208
000090 5a ff d8 bc 8a ee 64 3d af 92 d0 3a e5 f9 49 bc
       -0.026488949 0.05589155 0.0015912856 -0.012327646
0000a0 86 65 77 3b 4d 47 24 bc 7c d2 52 3d a8 2b 72 3d
       0.0037749722 -0.010026765 0.051470265 0.059123665
0000b0 4c 65 d8 3d be 12 40 3b 58 3d 97 bd b6 5d b8 bd
       0.10566196 0.0029308046 -0.07384747 -0.09002249
0000c0 2b 21 85 bb ec 0b 37 3c 6c 4a 42 bd 94 78 01 3e
       -0.004062792 0.011172276 -0.047434255 0.12643653
0000d0 5a 9c 09 3d e8 f6 73 bd 1c 19 c9 bc f1 6e 0c bd
       0.033596374 -0.05956164 -0.024548106 -0.03428549
0000e0 d0 e1 c4 3c d3 5f dd 3b 77 d6 c1 bd 02 c7 81 bc
       0.024033457 0.006755808 -0.09464734 -0.015841965
0000f0 50 d3 0d bd ae 6e be 3d 72 e1 97 3c 22 19 0b 3d
       -0.03462535 0.09298454 0.018540118 0.033959515

fc1.weight f4 [128, 1600]
000000 38 a8 7b bc f7 0d 94 bc 56 97 22 be 81 c2 57 bd
       -0.015359931 -0.018073065 -0.15878043 -0.052675728
000010 f0 05 10 be 66 e9 09 3c 1b 16 e1 bc 8e c5 49 bc
       -0.14064765 0.008417463 -0.027476361 -0.012315167
000020 4f fa 8b bd 10 28 34 bd 59 96 b7 bd 10 85 37 3d
       -0.06834852 -0.04398352 -0.089642234 0.044804633
000030 20 e7 51 bc 10 22 a4 bd b9 f2 45 3c bd fe f0 3d
       -0.012811452 -0.080143094 0.012081795 0.117673375
000040 65 93 2a 3e 53 99 c7 3c 5f 21 8c bd 0c c1 89 3d
       0.16657789 0.024365103 -0.068423025 0.06726274
000050 28 83 e7 bb d0 c9 b9 bd 8c 2e 03 be d6 28 a1 3b
       -0.0070651956 -0.09071696 -0.12810725 0.004918198
000060 be 71 39 3d d8 2f db 3c da 0c cc 3d af be c1 bc
       0.04527449 0.026756212 0.09963389 -0.023650495
000070 f7 5d 3c 3c 09 ae 94 bd 02 40 4d bc 79 14 79 bd
       0.011497012 -0.07259757 -0.012527468 -0.06081054
000080 80 27 8e bd db 16 84 bd f7 3a b1 3b 2d d5 af bd
       -0.06941128 -0.06449672 0.0054086405 -0.08585582
000090 a7 87 0a bc e9 30 84 3c ee 6d ca 3c d5 8f 99 bd
       -0.008455194 0.016136603 0.024710622 -0.07498137
0000a0 ab a6 7c 3d 0f 2e 5b 3d a0 91 44 3d 25 c1 98 3d
       0.061682384 0.05351072 0.04799044 0.074587144
0000b0 f1 b1 ba bd 25 36 4f 3d b7 6f 1f 3e 1e 4f 1d 3e
       -0.09115971 0.050588746 0.1556996 0.15362212
0000c0 b3 f2 b8 bb e3 71 ce bd 7c 2a 8c 3d cc a8 44 bd
       -0.0056441664 -0.10080316 0.06844041 -0.04801254
0000d0 c9 70 52 bd d4 a9 18 be 17 7c 62 bd 72 d1 50 3c
       -0.05137709 -0.14908534 -0.055294123 0.012745248
0000e0 2a 4d ee bd d8 c9 9a bd 35 03 9f bd ac 09 1a 3d
       -0.116358116 -0.0755803 -0.077642836 0.03760688
0000f0 57 61 15 be 5b 03 01 bc 24 bf 04 bd a7 f6 3e 3d
       -0.14587913 -0.007874335 -0.03240885 0.046621945
000100 c0 70 42 3d a6 07 fb bd ee c8 bb bd 89 83 de bd
       0.047470808 -0.12257318 -0.09169184 -0.10864932
000110 68 55 3f 3d e5 77 99 3d 21 96 b2 bc 50 c0 09 3d
       0.04671231 0.07493571 -0.021800103 0.03363067
000120 dd 17 eb bc 3b b6 4e 3d a9 3e 4d 3c 73 1d 97 3b
       -0.028697902 0.050466757 0.012527146 0.004611665
000130 90 d3 64 bd 80 d0 15 bd 87 6e e0 bc 9b 2e 1f bb
       -0.055865824 -0.036575794 -0.027396454 -0.0024289254
000140 ce d8 d1 bd aa bc 03 be e4 6d 19 bd a4 81 9f bd
       -0.1024643 -0.12864938 -0.037458315 -0.07788399
000150 5b e2 41 3c 5a a8 87 be 8a 7e 52 be 4e 77 90 bd
       0.0118337525 -0.2649563 -0.20556083 -0.070540056
000160 d6 24 3d bb 50 30 bc 3d d1 db 4b be 77 39 0c be
       -0.0028861067 0.091889024 -0.19908072 -0.13693796
000170 93 b0 97 bd 08 a0 8f 3d 57 de 9f 3c be f5 15 be
       -0.07406726 0.070129454 0.0195152 -0.14644524
000180 1b 80 44 3c eb e1 4f 3d 7c 38 b3 3d f2 69 a6 bd
       0.011993433 0.05075256 0.08751008 -0.08125676
000190 cd 34 8b bd 71 df e9 bd 80 b9 99 3b cf 6f 6a 3a
       -0.0679718 -0.11419571 0.004691303 0.00089430524
0001a0 ba 44 86 3d 33 63 e6 bd 67 cf 80 bd 7a 88 24 3a
       0.06556077 -0.112493895 -0.06289559 0.000627644
0001b0 b5 2c 1b 3d 38 2b d4 3d 21 81 31 be db db 83 be
       0.037884433 0.10359806 -0.17334415 -0.25753674
0001c0 c1 09 27 be aa 80 92 bd 36 92 3b bc 19 56 7d bd
       -0.16312315 -0.07153447 -0.011448434 -0.061849687
0001d0 0e 4e 30 3d 50 0a 65 bd e0 97 b3 bd ed d6 31 be
       0.04304319 -0.055918038 -0.08769202 -0.17367144
0001e0 82 ac 50 bc 41 67 9e 3d 37 fe 0b 3c 68 31 62 bd
       -0.012736442 0.07734538 0.008544496 -0.0552229
0001f0 a6 0a 5c be 2c f1 82 bc 6a 89 28 bd 41 e1 f0 bd
       -0.21488437 -0.01598414 -0.041146673 -0.11761714
000200 5f 86 a8 bd 35 9e b9 bd 38 01 bf bd 11 57 ad bd
       -0.08228754 -0.09063379 -0.09326404 -0.08463872
000210 67 0d 9d bd a4 e1 c3 bd 8a b7 41 3d 9b b1 23 be
       -0.07668572 -0.09564522 0.047294177 -0.1598572
000220 b8 de 04 3c 6a ce 0a bd 16 6d 01 bd 02 29 01 3d
       0.008109741 -0.033888258 -0.031598173 0.03153325
000230 db 4a d4 bd d1 31 1b be 63 1a ab bd 42 59 9e 3d
       -0.1036584 -0.15155722 -0.08354642 0.07731868
000240 a4 35 c4 3c af 09 21 bc c7 62 27 bd 74 d1 85 3d
       0.02395136 -0.009828969 -0.040865686 0.06534091
000250 28 4c 24 3d bc 23 9e 3a cc 5e 1b 3d f4 80 9a 3d
       0.04011169 0.0012065093 0.037932202 0.07544127
000260 d9 29 ec 3d 64 49 b2 3d 4b 29 d7 3d 8d 32 a8 bd
       0.11531419 0.087054044 0.10505923 -0.08212767
000270 f5 bd fc bc 09 1e b3 3d 7c ff 22 3e 3e 6f 1d 3e
       -0.030852297 0.08745963 0.15917772 0.15374467
000280 eb 2a 56 be 12 db 14 be 80 1b 07 bd 56 16 9f 3d
       -0.2091481 -0.14536694 -0.03298521 0.07767932
000290 5b 12 e7 3d 93 af 10 be 4e 3c 9d 3b 0b e0 cc bc
       0.11282798 -0.14129476 0.0047984486 -0.025009176
0002a0 4f a0 95 bd 38 16 23 bc a2 6d 0d bd af be e4 bc
       -0.07305967 -0.009954028 -0.034528382 -0.027922956
0002b0 77 8c b3 3c 19 06 f4 3b a7 01 22 be 99 88 83 3d
       0.021917565 0.007447016 -0.15820943 0.06422538
0002c0 17 f8 b5 bd 6e e7 cf bd 7e cd 56 bc 3e 0a fd bc
       -0.0888521 -0.101515636 -0.013110517 -0.030888673
0002d0 04 4a 1a 3e 6e f7 88 3c 37 1a 84 3d 97 a8 44 3d
       0.15067297 0.016719546 0.064503126 0.048012342
0002e0 80 68 dc bb c2 36 00 bd d5 cc d5 bc 0f 62 78 bd
       -0.0067263246 -0.03130222 -0.026098648 -0.06064039
0002f0 8a 94 10 3d 58 e9 12 3e 19 82 bb bd b5 a9 92 bd
       0.035297908 0.14346826 -0.091556735 -0.07161275
000300 4e 32 3f be 17 4d 9f bd 5d 5b 01 bb 58 b3 09 be
       -0.18671533 -0.077783756 -0.0019738295 -0.1344732
000310 04 41 8d 3c 7b cf 04 3d f1 bf 9b 3d e2 9a 7c bd
       0.017242916 0.03242443 0.07604969 -0.061671145
000320 70 16 0f be 30 f2 f4 3b 74 ac 1f bd 78 01 8c bd
       -0.13973403 0.00747516 -0.038982823 -0.06836218
000330 e0 65 ba 3d 39 fa 6d be bf 3c cf bd f3 d8 c1 bd
       0.09101462 -0.23239984 -0.10119008 -0.09465208
000340 a2 da cc bd 91 1e 8b 3d 2e 5b a9 bc c3 10 9c bd
       -0.100026384 0.067929395 -0.02067336 -0.076203845
000350 69 e5 d2 bd 49 fc 4e bd a3 59 91 bd 69 ee 80 3b
       -0.10297663 -0.050533567 -0.07097175 0.0039346707
000360 9f ab f8 ba f4 e5 07 bc f3 28 5a bd 1a 93 e5 bc
       -0.0018972046 -0.008294571 -0.05326171 -0.028024245
000370 97 e6 81 3d e1 eb 7e 3c 1c d1 04 bd de 05 8e bd
       0.0634281 0.015559168 -0.032425985 -0.06934713
000380 e2 5c 93 3d ea 19 44 3c cd 76 db 3c 35 03 8f 3d
       0.0719545 0.011969069 0.026790047 0.069830336
000390 73 3f b0 bb c0 f0 9e 3c 20 02 32 3e 31 a7 03 3d
       -0.0053786575 0.019401908 0.17383623 0.032141868
0003a0 1b f9 83 3d 26 07 7c 3c 4e 61 77 3b a6 1c 95 3d
       0.064439975 0.015382564 0.0037747207 0.07280855
0003b0 02 85 f7 bb f8 ff b7 3d d3 5d cf bd 1f c6 22 bd
       -0.0075536976 0.08984369 -0.101253174 -0.039739724
0003c0 1a 0e 54 3d 29 14 5f 3c 6d 5c 85 3a a4 c6 e8 bd
       0.05177126 0.013615646 0.001017464 -0.11366013
0003d0 1f 64 01 be c2 b7 46 bd ec b9 27 3b 36 7f e9 3d
       -0.1263585 -0.04851509 0.0025592996 0.11401217
0003e0 c6 cf 0d bd 68 ab 15 be 67 e5 d0 bd 19 82 43 bd
       -0.034621976 -0.14616168 -0.10200005 -0.047731493
0003f0 cc 04 b0 bd c3 1a 7e bd d8 1a ac ba 1e c4 80 bd
       -0.08594665 -0.06203724 -0.0013130559 -0.062874064

fc1.bias f4 [128]
000000 19 b1 54 3d 91 3f f9 39 8d 5a 1c bd 8a 44 63 bc
       0.051926706 0.00047540342 -0.038172293 -0.013871321
000010 7f 0b 9b bc b7 a6 b5 ba ef 9a bd bb 21 08 ff bc
       -0.01892638 -0.0013858889 -0.005786292 -0.031131806
000020 dc 38 cd 3c 41 d1 1e 3d 0e 2e 31 3c af b9 97 3a
       0.025051527 0.03877378 0.010814203 0.0011575724
000030 94 a5 54 3d de d5 ad 3d 0b 93 2b bc a4 9b 8a 3c
       0.05191572 0.084880576 -0.0104720695 0.016919918
000040 ee d1 06 bd d9 d0 33 bd 39 12 58 3c ed 74 94 bd
       -0.03291505 -0.043900345 0.013187938 -0.07248864
000050 03 8d 03 3d 01 b4 8b bb 17 e4 be 3c d8 2a 06 3c
       0.0321169 -0.0042634015 0.023302121 0.008188926
000060 c9 0f 11 bc 01 71 c8 bc 32 fe a5 bc 7f ec 02 3e
       -0.008853861 -0.024467947 -0.020262811 0.12785529
000070 7d 31 1c bd f6 27 82 3d c5 e7 66 3d 2d 6a 7d bc
       -0.038133133 0.06355278 0.056373376 -0.015467209
000080 d3 5b 4a 3d 08 2f 98 bd de 6c d8 bd bd 2f fd bc
       0.049403977 -0.074308455 -0.1056764 -0.030906552
000090 99 37 80 3c e4 b4 b8 bd be a7 e8 bc c9 64 c1 3c
       0.015651511 -0.09018877 -0.028400298 0.023607628
0000a0 77 76 23 bd ba 65 d2 bc 2c 75 81 bd e2 a6 9d 3d
       -0.0399079 -0.025683273 -0.06321177 0.07697846
0000b0 58 cb 13 bd 65 b2 22 bd 43 d4 4a 3c 1b 7c 3b 3d
       -0.036082596 -0.03972091 0.012379709 0.045772653
0000c0 28 2e 07 bd 0a 83 a9 bd 83 34 06 bc cb 9e 7a 3c
       -0.033003002 -0.08276947 -0.008191231 0.015296648
0000d0 5c a2 36 bd 9a fb b0 bc d6 74 40 bd ae af 47 3b
       -0.04458843 -0.021604348 -0.046986423 0.0030469703
0000e0 81 60 ee bc 2a 8e 9b bc e7 de b7 bc 8d 99 73 bb
       -0.029098751 -0.018988688 -0.022445155 -0.003717038
0000f0 5b 6b 51 bc 09 b7 b0 bc 6e 0f 84 3d 30 5f 42 3c
       -0.012781943 -0.021571653 0.064482555 0.011863515
000100 50 29 58 bd 28 84 a4 3d bf db 26 3d 7a ad 0e ba
       -0.052773774 0.08033019 0.04073691 -0.000544272
000110 b2 87 ce 3d 4e 02 bc 3d 32 34 3f bc 71 ff 1c 3d
       0.100844756 0.09180127 -0.011670159 0.038329545
000120 70 47 b1 bc 41 0e 5d 3d ad 58 6c bd 00 24 57 3d
       -0.02164051 0.05396867 -0.057701755 0.052524567
000130 5a bd 8e 3c 06 4a 99 3c e9 e9 3a bc c1 e9 84 bd
       0.017424274 0.018712055 -0.011408308 -0.064898975
000140 7c 85 33 bd da d2 1d 3d 1a 18 05 bd f1 06 87 bc
       -0.043828472 0.03853116 -0.03249369 -0.016482802
000150 00 75 92 bd 17 69 8a bd e4 08 70 bd f9 81 16 bd
       -0.07151222 -0.067583255 -0.05860223 -0.036745045
000160 b2 52 70 bd 2e 99 a6 3b c7 7d 15 3e 2c 2e c8 3c
       -0.058672614 0.0050841784 0.14598761 0.024436079
000170 5b 53 78 bd 69 64 d9 bb 50 b6 e4 3a 5a 1e ef 3c
       -0.06062637 -0.0066342843 0.0017449353 0.029189277
000180 d9 4e a1 3d 0a fc e6 bb f9 9c 9e bd 5d 7d c2 bc
       0.07876367 -0.0070490884 -0.07744784 -0.023741418
000190 a6 43 5d bc b5 11 89 bc f4 59 8e 3c 5e 21 48 bc
       -0.013504898 -0.016732076 0.017376877 -0.012214987
0001a0 6f 89 63 bc 9e 10 7f 3d c6 d3 b3 bc d5 b8 b2 bb
       -0.013887747 0.062271707 -0.021951567 -0.0054541626
0001b0 b0 d6 c9 bb d8 32 c6 3d 8f b9 ed 3d 86 55 86 bc
       -0.006159626 0.096776664 0.11607658 -0.016398203
0001c0 a0 29 76 bd d3 23 f9 bc fb ff 23 bd 12 fc 31 bb
       -0.06009829 -0.03041259 -0.040039044 -0.0027158302
0001d0 41 9e 9d bc 70 c3 24 bd 1b 1e 93 bd 43 bf d5 3c
       -0.0192405 -0.040225446 -0.071834765 0.026092177
0001e0 e7 d8 87 3c ac 3c f8 3b 6b 49 8d 3d 48 ca b4 bd
       0.01658292 0.007575592 0.06898769 -0.088276446
0001f0 11 67 9c bc b0 96 b2 bc 1c 49 71 3c a8 64 19 bd
       -0.019092115 -0.021800369 0.014726903 -0.03744951

fc2.weight f4 [10, 128]
000000 d5 f5 e5 3d a3 56 d9 3d 72 58 89 3d 65 69 0a 3e
       0.11228529 0.10612228 0.06706323 0.13516767
000010 59 94 70 3d ad 43 62 bc ff 7a b6 3d be 52 fb bb
       0.058735225 -0.0138100805 0.089101784 -0.0076697757
000020 54 c3 b4 3d 0d 34 e1 bd b7 1c c0 bd c7 03 41 bd
       0.088263184 -0.10996256 -0.09380477 -0.047122743
000030 16 29 b9 3d eb f0 d4 bd 28 ae bb bc 14 4d a1 bc
       0.0904104 -0.10397514 -0.022910193 -0.019690074
000040 56 5e 45 3c 3f 74 9b 3c 15 4f ae bd 03 6f 8f bd
       0.012046417 0.018976329 -0.085111775 -0.07003596
000050 ca c8 15 3e 41 ee 3e 3d 32 51 c1 bd 75 3e 90 bd
       0.14627376 0.046613935 -0.09439315 -0.07043163
000060 dd a1 b6 bd e0 ff 80 3d d6 d3 d7 3d 15 4a 7d be
       -0.08917592 0.06298804 0.105384514 -0.24735291
000070 ae 0b 83 3d ba ff 34 be ed fa 8a be 10 50 dc bc
       0.06398712 -0.17675677 -0.27144566 -0.026893646
000080 f8 7f bc bd 1d c3 8c be ae 84 b5 3d 4c 75 3b 3d
       -0.092040956 -0.2749261 0.08863197 0.04576616
000090 e5 d0 9f bc e0 4a 19 3e 27 64 4d 3a aa 00 9b be
       -0.019508788 0.14969969 0.0007835053 -0.30273944
0000a0 d6 9f cd bd 28 d0 6b 3d 56 22 be 3d a0 59 fe bd
       -0.10040252 0.05757156 0.09283893 -0.12419438
0000b0 b6 d1 0e 3c a5 93 25 bc cc 1c a8 3d ce cd 5e be
       0.008716991 -0.010106002 0.082086176 -0.21758196
0000c0 fe 2d 1f bd 22 cd aa 3c d1 bb 11 be f8 5b ad 3d
       -0.03886222 0.020849768 -0.14231803 0.08464807
0000d0 b1 56 2a 3d 73 db 9a bd c2 c2 63 3e 17 84 d4 3c
       0.04158658 -0.07561388 0.22242263 0.025941892
0000e0 ad eb 17 be 04 32 6a 3d de 5f 18 be 79 23 64 3c
       -0.14835997 0.057176605 -0.1488032 0.013924473
0000f0 26 e0 9b 3c 33 6e 1f bd 3a 03 06 3e 92 c8 09 be
       0.01902778 -0.038923454 0.13087168 -0.13455418
000100 49 90 2f 3d c2 87 21 3e 4e 7b eb 3d 5d 83 95 3b
       0.04286221 0.15774444 0.11498128 0.004562779
000110 01 77 0f be 00 9f 82 3c 0a 28 29 bd 02 2e cb 3d
       -0.1401024 0.015944958 -0.04129795 0.09920885
000120 8e 17 1c bc 87 5f 72 be dc a0 09 3b 39 05 5d be
       -0.0095271 -0.23669253 0.002100042 -0.21584024
000130 f1 61 79 3d bd 14 8c bc 11 9f 21 38 f6 ca 7a 3d
       0.06088442 -0.017099733 3.8533533e-05 0.061228715
000140 69 bc 98 bd 81 51 93 bd d2 3e 5b be b8 5a e2 bd
       -0.074578114 -0.0719328 -0.21410683 -0.110524595
000150 46 82 03 be 06 d4 cf 3c 17 11 e2 3c 67 0b 0f 3e
       -0.12842664 0.025369655 0.02759604 0.13969193
000160 c4 18 b4 bc c6 14 72 3c 3f 26 0f 3c 4e 58 2e be
       -0.021984465 0.014775461 0.008737146 -0.17025873
000170 b3 66 ae bc 45 66 c0 3d e8 2d 8f bd b5 34 ff bd
       -0.021289205 0.09394506 -0.06991178 -0.12461225
000180 9c 92 2b be d6 22 5a 3e b9 f8 9a bc 0a a8 36 bd
       -0.16755146 0.21302351 -0.018917428 -0.04459385
000190 82 c9 80 bd b7 c3 af bc 5b 3c 12 be 13 45 35 bd
       -0.062884346 -0.021455629 -0.14280836 -0.044255327
0001a0 99 b7 ee bd b1 3e 50 be 28 90 62 bc 90 6d 94 3d
       -0.11656112 -0.20336415 -0.013828315 0.0724746
0001b0 06 6f 41 bd fa 1f 05 3d d4 77 ed bd 94 83 8a 3d
       -0.04722502 0.0325012 -0.11595121 0.06763378
0001c0 52 4c bc bc 59 34 1c bb a8 96 bb 3d 1a d8 fc bd
       -0.022985611 -0.0023834913 0.09159595 -0.123459056
0001d0 d3 5e 98 3d 29 7d 99 3c f5 bf 0f 3e 0f 92 0f 3e
       0.07439961 0.018736439 0.1403807 0.1402056
0001e0 88 a2 03 bd 0c 75 6f be 99 cb c9 bd 69 59 f8 3d
       -0.032137424 -0.23384494 -0.09853286 0.12126429
0001f0 24 81 ac bb c0 b9 3c be fe f8 87 be 50 e4 96 bc
       -0.005264418 -0.18430233 -0.26557153 -0.018419415
000200 ab 69 bd bc 73 4e 8e 3d 34 d9 83 be 96 59 44 bd
       -0.023121675 0.06948557 -0.2575165 -0.047937
000210 5f 1a a1 3c eb 7e 9e 3c 8c 0b 83 bc 3a bb 58 bd
       0.019665895 0.019347629 -0.015996717 -0.05291293
000220 5d 89 82 bc e1 3a de bd da 48 fb 3d 4c bf 5e bd
       -0.01593464 -0.10851074 0.12269755 -0.054381654
000230 f0 7d 1d 3e e1 fd fb 3c 8f e7 33 bd 99 b8 cf bc
       0.15380073 0.030760707 -0.043922003 -0.025356578
000240 1f 1b 8f 3b a1 b2 04 be 80 06 08 3e 2f 23 cc bd
       0.0043672468 -0.12958767 0.1328373 -0.09967648
000250 cb 7d 5d 3e ae ce 74 bd d5 19 a2 3c 14 a2 e5 3d
       0.21630017 -0.059767418 0.019787708 0.112125546
000260 59 00 f9 bd d5 e9 60 bc 53 bd 2f 3d 7d dd 07 3e
       -0.121582694 -0.013727625 0.042905163 0.13268085
000270 c7 12 3a bc 20 de 73 3e ef 29 3d be e0 1e 55 bd
       -0.011357016 0.23815203 -0.18473028 -0.052031398
000280 48 c6 07 3e e8 5d 1a bd 42 26 52 bd 5a 3a 7c 3d
       0.13259232 -0.037687212 -0.051306017 0.061579086
000290 cb b1 32 3d 4e 13 01 be fb 94 13 bd ab 36 4c 3d
       0.043626588 -0.1260502 -0.03603075 0.049856823
0002a0 a8 82 f0 3d 85 16 ad 3d 07 d7 2d be e0 f9 38 3e
       0.11743671 0.08451561 -0.16976558 0.1806407
0002b0 7a 9d 4a 3d f4 45 5f 3d d5 95 45 3d e2 8f 94 bd
       0.049466588 0.054510072 0.048238594 -0.07254006
0002c0 92 d3 05 bd 0c 3c 86 3d ea 2b 29 3d 72 02 56 bd
       -0.032672472 0.06554422 0.041301645 -0.052248426
0002d0 d1 88 34 be 60 9e 19 3c 53 e1 2f bd e8 73 31 3e
       -0.17630316 0.009376138 -0.042939495 0.17329371
0002e0 49 d8 a9 3d 5e 12 84 bd e6 75 3b 3d b6 98 8a bc
       0.08293206 -0.06448816 0.045766734 -0.016918521
0002f0 87 c4 b8 bc 0f ca 21 be 7d 58 28 3e b9 6a a2 bd
       -0.022554649 -0.15799735 0.16440006 -0.07930512
000300 14 db b7 3d 52 cc 3d 3e d6 ed c4 bc 0c 85 fc bc
       0.08977333 0.18534973 -0.02403919 -0.03082516
000310 48 31 e1 3c 55 d1 be 3d 8b 71 9e bd 01 1c 1f bd
       0.02748932 0.09317271 -0.077365 -0.038845066
000320 44 3b 02 3d d9 52 0f bc b5 1f c9 3c 30 8d 9a 3d
       0.0317948 -0.00874778 0.024551252 0.07546461
000330 c1 e6 ba bc 12 f5 72 bd 9c 51 db 3c de 83 27 3d
       -0.02281511 -0.05931575 0.026772313 0.040897243
000340 bf 73 14 be 3c 8f bd bd 0c 74 13 3d 71 c3 2c be
       -0.14497279 -0.092558354 0.035999343 -0.1687143
000350 af 8b 5b bb 77 33 bb be f3 80 a1 bc b9 4b 50 be
       -0.0033500006 -0.36562702 -0.019714808 -0.20341386
000360 a1 ee 87 bc 32 85 23 bc cc f7 b7 3c b3 24 2b be
       -0.01659328 -0.009980487 0.022457026 -0.16713218
000370 84 b3 b0 3c 56 fe 41 be c1 9d 75 bd ad 6b 94 bd
       0.021569975 -0.18944678 -0.0599649 -0.072471
000380 39 31 25 3d e6 cc cf 3d 54 c8 e5 3c 5f 91 e6 3d
       0.040330146 0.10146503 0.028049625 0.11258196
000390 98 95 fa 3d e5 0b e6 3d 68 e5 c5 3b 21 64 1b bd
       0.12235564 0.112327375 0.0060393102 -0.037937287
0003a0 82 bc a5 bd 3a 28 3e 3d f0 a1 49 3d 1a ea 5e bd
       -0.08092596 0.04642508 0.0492267 -0.054422475
0003b0 58 93 8f 3d 73 cf 3b 3d 82 8b 12 3e eb 05 19 3c
       0.070105255 0.045852136 0.1431103 0.00933979
0003c0 fd 9c f6 bb 8f 05 4c be 7b ae 97 be 19 46 4c 3e
       -0.0075260387 -0.19923995 -0.29625306 0.19948615
0003d0 af e7 00 3e c1 1f 66 be 56 c1 a7 bd 16 4f 98 bd
       0.1258838 -0.2247305 -0.08191173 -0.074369594
0003e0 28 c9 12 3d e7 63 8e be 0c 1e 9e bd 22 db 6d be
       0.03583637 -0.27810594 -0.07720575 -0.23228124
0003f0 17 1a 24 3d 0f d3 98 bd f9 5b 34 3e b4 21 60 3c
       0.040063944 -0.07462131 0.1761321 0.01367991

fc2.bias f4 [10]
000000 40 34 0f bd 89 4e 97 bc 0b a3 c2 3c a8 60 3f 3d
       -0.03496194 -0.018470066 0.023759386 0.046723038
000010 8a df e2 3d d8 0a 23 3c cd e0 9c 3c f6 21 5a bd
       0.11077793 0.009951316 0.019150162 -0.053255044
000020 63 10 0b 3e 2a a4 9d bd
       0.1358047 -0.076973274
