PyTorch_NN/mnist_model.pth (torch, 409136 bytes, 4 tensors)

fc1.weight f4 [128, 784]
-0.034389548 -0.0012360282 -0.011671598 -0.03139506 -0.030227398 0.017513556 0.03073382 -0.0020634292
0.02553304 0.02119513 -0.011578891 -0.013651631 0.015835932 0.0052844887 0.007532823 -0.026527632
-0.03439519 -0.018942263 -0.024704948 -0.027937422 -0.010890088 -0.0065725534 -0.00638565 0.024509545
0.03030262 0.011253584 0.033344287 -0.022972887 0.033924688 0.022080746 -0.0070487135 0.026228666
-0.025238072 -0.02997367 0.022899557 0.023889959 0.0045871823 -0.030757358 0.027496688 -0.010803495
0.033309225 0.017828852 0.0028209416 0.020225262 0.019568218 -0.0053414875 0.030540641 0.02340669
0.015516219 0.03312395 -0.011667277 -0.007533184 -0.0039788955 -0.0019237977 0.03409897 0.00863731
-0.031901203 -0.0022583492 0.002415132 0.029005256 -0.015298853 -0.031049365 0.034165405 -0.019418616
-0.026063034 0.0052227085 0.0026433913 -0.0005018392 -0.02997361 0.017949156 -0.007777909 0.024700487
0.010413265 0.029694755 0.011435011 -0.008864832 0.02001395 -0.0021975355 0.020128893 -0.034294985
0.016767988 -0.03071287 -0.034562543 0.0039261687 -0.012918378 -0.021408286 0.009982387 -0.0053876555
0.0004946143 0.021523045 0.033462655 0.030953638 -0.02215403 0.014963137 -0.032888442 0.020810079
0.013306472 0.029688448 -0.031041035 0.000121137295 0.0021900379 -0.023766702 0.020839712 0.00284266
0.01378713 0.014777704 -0.017301114 -0.0031153108 0.028548531 -0.03254046 0.02944894 -0.014470713
-0.03048939 -0.010627968 -0.015845023 0.035032548 0.005767976 0.027121568 -0.013463042 -0.0043822825
0.018057786 0.030480947 0.018496923 0.017935162 0.03081132 -0.019567912 0.019939724 0.0048362357
0.023565106 -0.029946102 0.022829002 0.024010053 -0.01577012 0.008309081 0.03495035 -0.033990167
-0.026400296 -0.031136362 -0.0007120268 -0.0014673156 0.03165685 0.022745252 0.032775175 0.032021794
0.027362658 -0.033043183 0.025379006 0.005019583 0.01645878 -0.013795016 0.027905138 0.03136815
0.031239204 0.027463999 0.0058151456 -0.029521238 -0.002136833 -0.00070890185 0.0062680324 -0.00022414222
0.0063234223 -0.031451736 -0.021208564 -0.009175493 -0.023701355 0.0037408585 0.012850009 0.0052049886
-0.025762841 0.027897533 -0.00079962396 0.023806138 -0.022782968 0.02656378 -0.0035205493 0.004450009
0.015919983 0.032051772 -0.018613033 0.008859394 0.029986456 -0.0042261183 0.020303557 0.014743132
-0.0047467463 0.03441115 0.032940626 0.023825075 -0.022500185 0.017334763 0.02887673 0.021646524
0.011972001 0.020697484 -0.002972796 -0.01822006 -0.028178966 -0.01866425 0.022851825 -0.03092322
0.0149091985 0.015145142 -0.015404004 -0.0062954347 0.00983093 -0.002458509 -0.028837312 0.01604248
0.0072932034 0.030006122 -0.025906382 -0.0014694342 0.016450265 0.033604342 0.015271524 0.025235375
0.013093997 0.005949355 0.028158685 -0.00018748749 0.014700994 0.0066145705 0.011684057 -0.009784447
0.031624347 -0.020501683 0.022137668 0.009707889 -0.0119211245 0.014125638 0.030737448 0.028765107
-0.019368907 -0.029547077 -0.0043385127 0.016789775 0.023437655 0.034120996 -0.028531738 -0.015979959
-0.008291785 0.010054457 0.014924589 0.022661349 -0.029361568 0.02002868 0.01722174 0.023087556
-0.022777338 0.023804575 -0.0068876618 0.028611692 -0.032775197 -0.03270233 0.0048934733 0.02501662
00000000: 0edc 0cbd 3902 a2ba 3b3a 3fbc 1b98 00bd
00000010: 739f f7bc 9778 8f3c 7ec5 fb3c 993a 07bb
00000020: aa2a d13c 69a1 ad3c 64b5 3dbc 17ab 5fbc
00000030: 5bba 813c 8129 ad3b e6d5 f63b 7a50 d9bc
00000040: f9e1 0cbd ce2c 9bbc 0862 cabc 05dd e4bc
00000050: 576c 32bc 935e d7bb b73e d1bb 3ec8 c83c
00000060: 333d f83c f460 383c 0594 083d a331 bcbc
00000070: 9df4 0a3d aee2 b43c e5f8 e6bb 80dd d63c
00000080: 13c0 cebc 588b f5bc da97 bb3c e0b4 c33c
00000090: 1350 963b dbf6 fbbc bc40 e13c 2401 31bc
000000a0: 416f 083d d00d 923c 8cdf 383b 73af a53c
000000b0: 874d a03c a507 afbb 5e30 fa3c 63bf bf3c
000000c0: bd37 7e3c fbac 073d 1b28 3fbc edd8 f6bb
000000d0: 6561 82bb f027 fcba 5dab 0b3d 8183 0d3c
000000e0: d6aa 02bd d000 14bb 3147 1e3b 6e9c ed3c
000000f0: 0aa8 7abc 3d5b febc 06f1 0b3d ca13 9fbc
00000100: 2582 d5bc 4123 ab3b bf3c 2d3b dc8d 03ba
00000110: 378b f5bc 1c0a 933c d4dd febb ad58 ca3c
00000120: 669c 2a3c 6a42 f33c ea59 3b3c cd3d 11bc
00000130: 4cf4 a33c 8704 10bb 59e5 a43c e678 0cbd
00000140: 055d 893c 8f99 fbbc 7491 0dbd 17a7 803b
00000150: 9ba7 53bc 6e60 afbc 2a8d 233c ee8a b0bb
00000160: 01a9 013a 1951 b03c 2310 093d 7c92 fd3c
00000170: 5e7c b5bc f227 753c 08b6 06bd e679 aa3c
00000180: 6403 5a3c 3035 f33c c549 febc 170b fe38
00000190: bd86 0f3b 63b2 c2bc 0bb8 aa3c ec4b 3a3b
000001a0: 6ae3 613c 2f1e 723c 11bb 8dbc 3e2a 4cbb
000001b0: 9cde e93c 2549 05bd e73e f13c 9216 6dbc
000001c0: e3c4 f9bc ee20 2ebc 6ccd 81bc 4a7e 0f3d
000001d0: 4a01 bd3b 0d2e de3c 1794 5cbc 4099 8fbb
000001e0: eced 933c 2eb3 f93c dc86 973c c3ec 923c
000001f0: 0568 fc3c e34c a0bc a258 a33c 4979 9e3b
00000200: 9c0b c13c 8751 f5bc e303 bb3c bbb0 c43c
00000210: 5730 81bc d022 083c 1928 0f3d 4639 0bbd
00000220: 6f45 d8bc af11 ffbc 4fa7 3aba f152 c0ba
00000230: 9daa 013d 4054 ba3c 433f 063d 4929 033d
00000240: a727 e03c 4a58 07bd a2e7 cf3c 507b a43b
00000250: 90d4 863c 7e04 62bc 5199 e43c e47b 003d
00000260: 5ce9 ff3c 2efc e03c fa8c be3b 86d6 f1bc
00000270: 1c0a 0cbb 99d5 39ba 1164 cd3b b807 6bb9
00000280: b634 cf3b 89d3 00bd 95bd adbc cf54 16bc
00000290: 5829 c2bc 3129 753b d888 523c 9c8e aa3b
000002a0: 980c d3bc 5e89 e43c db9d 51ba 1705 c33c
000002b0: 59a3 babc 499c d93c 04b9 66bb 62d1 913b
000002c0: a06a 823c b848 033d 5c7a 98bc fe26 113c
000002d0: 28a6 f53c 407b 8abb a553 a63c 2d8d 713c
000002e0: 988a 9bbb b5f2 0c3d c0ec 063d ce2c c33c
000002f0: 4f52 b8bc a201 8e3c e48e ec3c 0d54 b13c
00000300: 3626 443c c58d a93c 3ed3 42bb 3c42 95bc
00000310: 93d7 e6bc c5e5 98bc c033 bb3c b152 fdbc
00000320: b645 743c 5423 783c 1361 7cbc ef49 cebb
00000330: e911 213c f01e 21bb 3a3c ecbc 856b 833c
00000340: d3fb ee3b 66cf f53c 9f39 d4bc 089a c0ba
00000350: b5c2 863c b5a4 093d 6a35 7a3c 6bba ce3c
00000360: 3488 563c cff2 c23b 0bad e63c 4a98 44b9
00000370: 70dc 703c 0abf d83b 7d6e 3f3c f24e 20bc
00000380: 8888 013d 25f3 a7bc 0e5a b53c d60d 1f3c
00000390: d250 43bc 386f 673c 1acd fb3c cda4 eb3c
000003a0: 8bab 9ebc b60c f2bc 152a 8ebb b68a 893c
000003b0: 5300 c03c 75c2 0b3d 64bb e9bc 67e8 82bc
000003c0: 44da 07bc 73bb 243c 4386 743c 4ba4 b93c
000003d0: ac87 f0bc 3013 a43c 9b14 8d3c 1d22 bd3c
000003e0: 8a97 babc d001 c33c e5b1 e1bb 1163 ea3c
000003f0: 493f 06bd e1f2 05bd 6e59 a03b a8ef cc3c

fc1.bias f4 [128]
0.016254785 -0.003514521 -0.021336338 -0.031431857 0.019078672 -0.01092148 0.018180083 0.0049504135
-0.028740335 0.011852187 -0.009861968 0.0153754605 -0.01572843 -0.028292112 -0.014548755 0.009057871
-0.013725154 0.008935962 0.025194073 -0.014913508 -0.013508806 0.026344394 -0.012480989 -0.012650303
-0.030701667 -0.018231088 0.0066047064 -0.031699393 0.023890292 -0.029215747 -0.026853979 -0.0017733334
0.0024281738 -0.019495618 0.010720923 0.009858154 -0.023820506 0.01769728 -0.022715975 0.036893696
-0.023899 0.034995012 0.008861941 -0.00079960714 -0.026475847 0.028045055 0.003567044 0.0027337284
0.0016696033 0.01118357 -0.028380917 -0.016362842 0.02586982 0.013075937 -0.004333708 0.016845824
-0.034132358 0.013584728 0.0041268254 0.017674493 0.024231726 -0.026458599 0.014726511 -0.0036183263
0.029599113 -0.022773346 0.01668898 0.029593363 0.02277756 -0.0107330885 0.02698881 -0.020964628
0.028531427 0.0027534796 -0.0017899363 0.013263255 0.013335816 -0.008692194 -0.029746082 -0.005915493
-0.016779771 0.031793278 -0.03558545 -0.018272312 0.031372428 0.019780627 -0.00035355968 -0.040248994
-0.030782992 -0.027557008 -0.034975365 -0.025422724 0.0072601424 -0.02474713 -0.04553935 0.0018065209
-0.010006827 -0.011406293 0.010341942 -0.00012929297 -0.005060005 0.026504273 -0.02088735 -0.029154804
0.013159819 0.023955047 0.016955048 -0.0023974476 -0.034797627 0.019694913 -0.025984665 0.029540597
-0.012679655 -0.036659997 -0.025098687 0.0076766848 -0.042683676 -0.009730889 0.0330969 -0.018181043
-0.03111484 0.02317811 0.021767624 -0.012238565 0.0208364 -0.018244041 0.03371022 0.027661506
00000000: c128 853c e153 66bb 8bc9 aebc b1be 00bd
00000010: e04a 9c3c 02f0 32bc 66ee 943c 1437 a23b
00000020: da70 ebbc ad2f 423c 1894 21bc 5be9 7b3c
00000030: e9d8 80bc dcc4 e7bc e75d 6ebc 7767 143c
00000040: 78df 60bc 2468 123c cd63 ce3c c957 74bc
00000050: 0a54 5dbc 33d0 d73c 107d 4cbc 3743 4fbc
00000060: 1082 fbbc 5d59 95bc 4b6c d83b 39d7 01bd
00000070: 93b5 c33c dd55 efbc e0fc dbbc 326f e8ba
00000080: ff21 1f3b 46b5 9fbc cfa6 2f3c 1884 213c
00000090: 3923 c3bc e3f9 903c da16 babc d81d 173d
000000a0: d6c7 c3bc ee56 0f3d ad31 113c ba9c 51ba
000000b0: e0e3 d8bc bebe e53c 11c5 693b 5a28 333b
000000c0: 97d6 da3a 4b3b 373c 197f e8bc 5e0b 86bc
000000d0: f2ec d33c 743c 563c c701 8ebb 4100 8a3c
000000e0: 5fce 0bbd 7b92 5e3c 523a 873b 19ca 903c
000000f0: 9d81 c63c b4bf d8bc 7747 713c 7121 6dbb
00000100: d779 f23c 2b8f babc 54b7 883c c86d f23c
00000110: 0198 ba3c d6d9 2fbc a317 dd3c 03be abbc
00000120: bdba e93c b973 343b 4c9c eaba 204e 593c
00000130: 777e 5a3c b469 0ebc 0eae f3bc c0d6 c1bb
00000140: bb75 89bc ab39 023d 0cc2 11bd d1af 95bc
00000150: 6080 003d fb0a a23c fa5d b9b9 21dc 24bd
00000160: 9d2c fcbc 3cbf e1bc 5442 0fbd 5143 d0bc
00000170: 7de6 ed3b 7eba cabc 7887 3abd c8c8 ec3a
00000180: adf3 23bc 76e1 3abc 4071 293c d192 07b9
00000190: 66ce a5bb 7d1f d93c f31b abbc 0ed6 eebc
000001a0: 489c 573c 603d c43c 50e5 8a3c 7f1e 1dbb
000001b0: f587 0ebd 3a57 a13c cbdd d4bc 1fff f13c
000001c0: 54be 4fbc cb28 16bd c39b cdbc b38c fb3b
000001d0: 14d5 2ebd 4f6e 1fbc 9d90 073d 69f0 94bc
000001e0: 8de4 febc 05e0 bd3c 0452 b23c 4384 48bc
000001f0: 19b1 aa3c 8774 95bc ba13 0a3d 629a e23c

fc2.weight f4 [10, 128]
0.06707803 0.09120286 -0.23311344 -0.015212206 0.16183336 0.06864757 0.07847213 -0.05387947
-0.06139425 0.08434287 0.017667666 -0.20687789 0.35384926 -0.07779904 -0.2754692 -0.044766918
0.21029243 -0.05648901 -0.03968704 0.047404587 0.0015398536 0.05218746 -0.10527892 -0.081144676
0.05742536 -0.1182577 0.17949408 0.03207064 -0.019470006 -0.07431065 0.16679358 -0.022260739
-0.019481108 -0.15888147 0.050219104 -0.011691978 -0.16033064 0.19089922 0.009262303 0.16502753
0.052267354 0.13753706 -0.10712966 -0.07566454 -0.026872126 -0.11384511 -0.2995677 0.13111702
0.017448934 0.06401581 0.031421944 -0.11394046 0.2812802 0.0747083 0.20163304 0.23153853
0.061071537 -0.02798325 0.061800845 -0.0010681399 -0.0017084013 -0.17620096 0.04122522 0.02173472
-0.055795155 -0.10277469 0.06894066 -0.33995834 0.01969008 -0.13020408 -0.03350994 0.07070645
-0.054092437 -0.056741226 -0.11717593 0.39137912 -0.082757644 0.08483942 -0.1883256 0.09550713
-0.29129508 0.093053654 -0.14482245 0.30381504 0.085847974 0.026013125 -0.010884521 -0.1364688
0.04484101 -0.30475852 -0.16266629 -0.004155507 0.1682311 -0.17320904 -0.011673972 -0.16587108
-0.06200657 0.03573424 0.14339702 0.2674567 0.078957975 -0.19974127 -0.4997048 -0.109707795
-0.025101518 3.0389569e-05 0.20976163 -0.12093607 0.055727888 0.0872652 -0.27333224 0.0059186597
0.41668046 -0.22029051 0.16442876 0.0631235 0.2896248 0.21621841 0.012985042 -0.012263817
0.09521134 0.11309372 0.01747227 0.10480514 -0.28200063 0.052151404 0.051089965 0.0035483523
-0.000583639 -0.23832676 -0.06634771 -0.10153305 -0.2426222 -0.13460466 -0.056243192 -0.03861701
-0.0615523 -0.055799633 -0.034896743 -0.1991907 -0.08201235 -0.047485877 0.029395299 -0.023511065
0.015802555 0.046444684 -0.17079073 -0.015716346 -0.026702015 0.031380143 0.38053468 0.0076009533
0.03640622 0.17858002 -0.06843641 -0.02109246 0.021390164 -0.009215388 -0.07394133 0.0054440694
0.08614362 0.023353143 -0.08503052 0.12003247 0.080225304 0.20369942 -0.018902404 -0.035208363
-0.019096008 -0.009507363 0.35123247 -0.010408128 0.047528055 0.05592286 0.025847504 -0.2017985
-0.025690984 -0.05987229 -0.04930504 0.175509 -0.109756395 -0.012480607 -0.1270453 -0.05548785
-0.0783021 -0.043193936 0.2023335 0.08472218 -0.03118978 -0.033340562 -0.052735984 -0.04475416
0.31496322 -0.24520627 0.070628986 0.07971576 -0.07995697 -0.11209903 -0.0041102353 0.08534282
0.0798496 0.24904604 -0.043961402 0.030615512 0.073095836 0.05954475 0.27654728 0.13430578
-0.08855859 -0.110775925 -0.102880865 -0.28113246 -0.11586332 -0.28738642 -0.118308395 0.19355254
-0.044177394 0.22852236 0.25139746 0.032299355 -0.25711134 -0.11503338 0.44399762 0.09262016
-0.08733624 -0.21624917 -0.13801269 -0.20988615 -0.14831938 0.26708013 0.27237794 -0.042389404
-0.25777972 -0.07911654 -0.12994142 0.15163226 0.18424919 -0.10532276 -0.12563911 -0.072666295
-0.09274929 0.14312798 0.15467301 0.08290242 -0.17582732 0.018825589 -0.034306426 0.039888825
0.08590832 -0.036718275 0.28262505 -0.31692934 0.18633051 0.20811437 -0.1088106 0.3450437
00000000: 3560 893d 91c8 ba3d 4ab5 6ebe 9e3c 79bc
00000010: a5b7 253e 1997 8c3d ffb5 a03d b8b0 5cbd
00000020: 8978 7bbd f4bb ac3d c8bb 903c ccd7 53be
00000030: bb2b b53e 1a55 9fbd 4d0a 8dbe 845d 37bd
00000040: e656 573e 0561 67bd e18e 22bd 502b 423d
00000050: ead4 c93a 85c2 553d 799c d7bd 2e2f a6bd
00000060: db36 6b3d 1831 f2bd 4ccd 373e 815c 033d
00000070: 907f 9fbc 2f30 98bd f0cb 2a3e 275c b6bc
00000080: d896 9fbc d3b1 22be 8cb2 4d3d b68f 3fbc
00000090: b72d 24be 167b 433e eac0 173c fafc 283e
000000a0: 4b16 563d 84d6 0c3e cc66 dbbd 03f6 9abd
000000b0: ef22 dcbc a027 e9bd f060 99be 8a43 063e
000000c0: 11f1 8e3c b91a 833d 4cb4 003d 9e59 e9bd
000000d0: f503 903e aa00 993d e478 4e3e 7018 6d3e
000000e0: 2626 7a3d 213d e5bc e222 7d3d d400 8cba
000000f0: 6fec dfba 066e 34be c7db 283d 030d b23c
00000100: 7689 64bd 897b d2bd c330 8d3d 050f aebe
00000110: 174d a13c 3854 05be b841 09bd 8bce 903d
00000120: 0890 5dbd 7d69 68bd eff9 efbd d862 c83e
00000130: d77c a9bd 4ac0 ad3d 6dd8 40be 3e99 c33d
00000140: a124 95be ea92 be3d 564c 14be a58d 9b3e
00000150: 10d1 af3d 7a19 d53c fd54 32bc 7abe 0bbe
00000160: 35ab 373d 4f09 9cbe fe91 26be eb2a 88bb
00000170: c644 2c3e b65d 31be 3044 3fbc 1cda 29be
00000180: 9afa 7dbd 115e 123d abd6 123e 16f0 883e
00000190: b8b4 a13d fa88 4cbe 4fd9 ffbe 7bae e0bd
000001a0: b3a1 cdbc 1aed fe37 c1cb 563e 55ad f7bd
000001b0: ed42 643d 19b8 b23d 34f2 8bbe 51f1 c13b
000001c0: 2457 d53e d693 61be 0360 283e e546 813d
000001d0: b449 943e 5c68 5d3e 37bf 543c 2dee 48bc
000001e0: 2afe c23d ae9d e73d 0222 8f3c 14a4 d63d
000001f0: 6362 90be b69c 553d b643 513d 798b 683b
00000200: 5aff 18ba ee0b 74be 4fe1 87bd 8ff0 cfbd
00000210: f471 78be ced5 09be 435f 66bd df2c 1ebd
00000220: 441e 7cbd 288e 64bd e3ef 0ebd a6f8 4bbe
00000230: 17f6 a7bd 8d80 42bd 69ce f03c 479a c0bc
00000240: 5c74 813c c83c 3e3d c4e3 2ebe 91bf 80bc
00000250: 2fbe dabc 7788 003d 71d5 c23e 6b11 f93b
00000260: b01e 153d aedd 363e 6328 8cbd 18ca acbc
00000270: 6d3a af3c 24fc 16bc 8d6e 97bd 2a64 b23b
00000280: 116c b03d 174f bf3c 7b24 aebd 95d3 f53d
00000290: 2a4d a43d 9596 503e 37d9 9abc a536 10bd
000002a0: 3b6f 9cbc c5c4 1bbc bed4 b33e da86 2abc
000002b0: c7ac 423d 5e0f 653d 25be d33c 44a4 4ebe
000002c0: e675 d2bc a53c 75bd 15f4 49bd a2b8 333e
000002d0: f6c7 e0bd 767b 4cbc 2a18 02be 3a47 63bd
000002e0: da5c a0bd 20ec 30bd 8330 4f3e d382 ad3d
000002f0: b681 ffbc 1d90 08bd b001 58bd 2350 37bd
00000300: dc42 a13e 5a17 7bbe eea5 903d 0442 a33d
00000310: 7bc0 a3bd 2d94 e5bd 27af 86bb 37c8 ae3d
00000320: 3088 a33d ed05 7f3e df10 34bd 62cd fa3c
00000330: 45b3 953d 32e5 733d 9b97 8d3e 7487 093e
00000340: 355e b5bd 7dde e2bd 34b3 d2bd 98f0 8fbe
00000350: c049 edbd 5024 93be ac4b f2bd a332 463e
00000360: 5bf3 34bd c401 6a3e 2bb7 803e 544c 043d
00000370: 19a4 83be 9f96 ebbd a853 e33e a3af bd3d
00000380: 58dd b2bd 6c70 5dbe 3353 0dbe 65ec 56be
00000390: 09e1 17be babe 883e 1f75 8b3e 83a0 2dbd
000003a0: b4fb 83be da07 a2bd 5d0f 05be 7d45 1b3e
000003b0: d2ab 3c3e 76b3 d7bd 8aa7 00be 11d2 94bd
000003c0: 57f3 bdbd 2490 123e 9a62 1e3e bec8 a93d
000003d0: 140c 34be 1f38 9a3c e584 0cbd 7762 233d
000003e0: b4f0 af3d e765 16bd 3bb4 903e 9044 a2be
000003f0: 6dcd 3e3e ef1b 553e 18d8 debd 91a9 b03e

fc2.bias f4 [10]
-0.0009601929 -0.011106147 -0.00056078937 0.02665511 -0.06900993 -0.06540573 -0.0693976 -0.05049471
0.25309828 0.026066136
00000000: 74b5 7bba 8ff6 35bc f001 13ba d15b da3c
00000010: 1455 8dbd 70f3 85bd 5420 8ebd 8bd3 4ebd
00000020: 1996 813e a688 d53c
